interface_prediction/checkpoints/last-v1.ckpt (torch, 259284 bytes, 62 tensors)

model.0.weight f4 [128, 59]
000000 d5 38 d3 3d 58 d5 e6 3c cf 0e bb bc c3 69 b5 3d
       0.10313574 0.028177902 -0.02283421 0.08858063
000010 f2 aa e3 bc db 12 2a 3d 99 a5 89 bd 87 68 c0 bb
       -0.027791474 0.04152189 -0.06721038 -0.0058718356
000020 04 df fc 3d 07 d9 8b bd 42 3a fd 3d db aa ae 3d
       0.12347224 -0.06828504 0.123646274 0.08528682
000030 ea 13 c2 3d b5 0f 1e 3c d2 75 a3 3d f5 65 bb bb
       0.094764546 0.0096473 0.07981457 -0.0057189413
000040 4c 42 86 3d 21 8d dd 3c 0d 84 c2 bd d3 59 25 3d
       0.06555614 0.027044835 -0.09497843 0.040368866
000050 fe 9a ba bd fc b1 11 bd 1f 84 3f bd d9 fd 7a 3d
       -0.09111594 -0.03557013 -0.04675686 0.061277244
000060 01 9c be bd f8 6b 62 bd 97 b1 cb bd b5 5f 8f bd
       -0.09307099 -0.05527875 -0.09945982 -0.070006765
000070 8f d6 3f bc 58 08 ff bd 80 b9 03 3e 63 a4 e7 bd
       -0.01170887 -0.12452763 0.12863731 -0.11310651
000080 01 8f 0b 3d ac 92 0d 3d 6c 2b b0 bc 3d a4 ba 3d
       0.034071926 0.034563705 -0.02150508 0.09113357
000090 15 71 9a 3d 49 0c d8 3d 25 9c 5f 3b b8 0d 60 bd
       0.075411 0.10549218 0.003412017 -0.054700583
0000a0 09 ce 2a 3d b0 c6 87 bd b9 e2 87 3d 5f a8 b7 3d
       0.041700397 -0.066296935 0.06635041 0.08967661
0000b0 51 7b 99 3d 17 99 86 bd 74 c1 ac 3d 9e d9 3e 3b
       0.07494224 -0.06572168 0.08435336 0.002912141
0000c0 c1 38 aa 3d 49 b6 9f bd 87 63 12 be bd 87 bc bd
       0.08311606 -0.0779844 -0.14295779 -0.092055775
0000d0 62 33 c6 bd 8f 3b 27 3e 53 b4 36 3d 4b 94 9e 3d
       -0.09677769 0.16331314 0.044605564 0.077431284
0000e0 ce 98 32 3d b7 95 fd 3b 0e 4f df 3d 0b f8 0b be
       0.043602757 0.0077387947 0.1090375 -0.1366884
0000f0 e8 b5 25 bc 0f 15 05 be e9 8d 55 3d 7e 7e c7 3b
       -0.010114171 -0.12996314 0.05213729 0.006088077
000100 07 d3 6a 3d fd 9e 9e bd 61 4f c1 3d fd 11 39 bd
       0.057330158 -0.07745168 0.094389684 -0.04518317
000110 95 3b 6c bd 7e c9 ea bd a5 5a ec 3d 79 af af 3d
       -0.05767401 -0.11464213 0.115407266 0.08578391
000120 89 0b fc 3d 8e 22 dd bd 6f 58 03 be e1 6a ba bd
       0.12306888 -0.107976064 -0.12826703 -0.09102417
000130 e0 82 9d bd 2f 33 7a 3d d4 18 66 3d bb ac b7 3d
       -0.07690978 0.06108397 0.05617602 0.089684926
000140 87 45 a4 bd 6f fa c3 bd 18 67 8b 3d 05 e7 49 bd
       -0.08021074 -0.09569251 0.06806773 -0.049292583
000150 1a c2 0c 3d 9e 86 1d bd dc 1f 07 3d 58 ff a5 bd
       0.034364797 -0.03845846 0.032989368 -0.081053436
000160 19 12 8b bc 52 c0 4a 3d e3 03 b3 bc 8a 3b 14 bd
       -0.016976403 0.049499817 -0.02185244 -0.036189593
000170 50 97 d1 3d 8b 8d c6 3d 4f 2a 06 be 7a a3 97 bd
       0.10233939 0.09694966 -0.13102077 -0.074042276
000180 33 0e 24 3e f1 2e 3f bd cc 86 3e bd 24 65 0b be
       0.16021042 -0.046675626 -0.04651527 -0.13612801
000190 d1 4f 80 bd ca 6c 3e 3d 3f 45 cd bc ea ac de bd
       -0.06265224 0.046490468 -0.025057433 -0.108728245
0001a0 8e 49 ce 3b f9 1a c7 bd c0 7e cd bd c7 e6 68 bd
       0.0062953895 -0.097219415 -0.10033941 -0.05686071
0001b0 47 b7 fc bd 51 ad 9e bd 8c 8b 11 3e ea ab 13 3d
       -0.12339645 -0.07747901 0.14213389 0.036052622
0001c0 96 c3 86 3d 58 2c e2 bd 5d 60 8a bd d3 89 18 bd
       0.06580274 -0.11043614 -0.06756661 -0.037240814
0001d0 66 ba d6 3c 0f f3 ed bd fa 57 78 bd 72 95 8d bd
       0.026211929 -0.116186254 -0.060630776 -0.0691327
0001e0 93 08 b9 bb 78 44 1f bd e4 f2 3b 3b 5c 9e b3 bd
       -0.005646774 -0.038883656 0.002867871 -0.08770439
0001f0 51 f9 a5 bd 53 ca 57 bd 7e 99 d0 bc e5 0c b8 bd
       -0.08104194 -0.052683186 -0.025463816 -0.089868344
000200 a3 86 c1 3d e8 92 97 bd 90 88 f8 3d 5d b4 03 3d
       0.09449508 -0.07401067 0.12135422 0.03215443
000210 2a 38 e5 bd 13 00 c7 3d 13 f4 0b bd b6 c5 fb bc
       -0.11192353 0.09716811 -0.034168314 -0.030733924
000220 9d da eb bd 78 a3 e8 bd 6f d4 c3 3d f5 45 be bb
       -0.115163065 -0.11359304 0.09562003 -0.0058066794
000230 13 d4 96 3d 07 79 f2 bd c6 ca d8 3d 1a 53 cc bd
       0.07364669 -0.118394904 0.10585551 -0.09976788
000240 f1 25 6d bc b9 5d ab 3c 27 aa 91 3d d2 25 f1 3d
       -0.014474378 0.020918714 0.07112532 0.11774792
000250 19 e3 e5 3d 17 98 c0 bd 79 e7 5e 3d 2c 9d 0b bd
       0.11224956 -0.09404009 0.05441997 -0.034085438
000260 48 c4 17 bc 3a 82 e5 bd ee 3b 93 3d 48 48 ae bd
       -0.009263106 -0.11206479 0.07189165 -0.0850988
000270 0c 37 5d 3d cb c2 2d 3d e3 b6 16 3d 6a 6e b3 bd
       0.054007575 0.042422097 0.036795508 -0.08761294
000280 2a 6f 03 3e b8 b1 40 3d c6 de ce 3c 31 e3 04 be
       0.12835374 0.047044486 0.025252711 -0.12977292
000290 ec 40 1f 3d 23 4b 2b bd 98 22 57 bd 66 05 15 3e
       0.038880274 -0.041819703 -0.052523226 0.1455284
0002a0 78 28 7e 3d 9c 2c 8f bd b3 d7 4d bd 66 71 5d bd
       0.062050313 -0.069909304 -0.050254535 -0.054063223
0002b0 a6 ae 87 3d c4 cd de bc 8f 7f b9 bd 08 22 42 bc
       0.066251084 -0.027197726 -0.09057533 -0.011848934
0002c0 6b 99 0e be d0 e2 8d 3d 34 f4 db 3d f7 ea cf bd
       -0.13925712 0.06928027 0.107399374 -0.10152238
0002d0 ce 34 69 3c c8 f7 61 3d 51 6d 05 3d d0 de 98 bc
       0.014233781 0.055167943 0.032574955 -0.018660933
0002e0 90 38 9d 3d 1e ab d2 3d 88 cf 76 3d 89 36 74 bb
       0.07676804 0.10286544 0.06025651 -0.003726395
0002f0 a0 0b 3c bd ff b0 14 bc 1e d5 bd bc 93 8f 31 bd
       -0.045909524 -0.009075402 -0.023172911 -0.043349814
000300 ba 66 af 3d f3 0a 05 3e 24 24 17 3d 9b f1 3b bc
       0.085645154 0.12992458 0.0368997 -0.011471177
000310 f6 33 52 3d 4e c5 9b 3c 22 fa 93 3d fd de a4 3d
       0.051319085 0.01901498 0.072254434 0.08050344
000320 60 01 b7 bd 8d 99 1f ba 99 fc 06 3e 6d 8d 3c 3d
       -0.08935809 -0.00060882495 0.13182296 0.04603331
000330 0e 54 61 3c 31 ab da bd 83 45 b9 bd 0e b9 f4 bd
       0.01375295 -0.106771834 -0.090464614 -0.11949359
000340 4e 13 81 bc 3f fb 29 3d 50 d6 f8 3d 2a 38 8c 3d
       -0.015756276 0.041499373 0.12150252 0.0684665
000350 bf 46 c3 bd d7 26 a6 bd e2 c7 36 bd a3 73 e8 3d
       -0.09534978 -0.08112877 -0.044624217 0.11350181
000360 54 b1 8f 3c 8b ce a4 bb 78 c2 3c 3d 29 de cb bc
       0.017540611 -0.0050295047 0.046083897 -0.024886208
000370 10 be a3 bd 6b 4f 03 3e f8 bc 80 bd 82 de 51 b9
       -0.07995236 0.12823264 -0.06286043 -0.00020014684
000380 6d 0a 1a be ee 7f c1 3d fe 6b d7 3d 45 1f de 3c
       -0.1504304 0.09448229 0.10518645 0.02711452
000390 56 89 94 bd 60 86 a2 bd 67 24 f2 bd 42 08 b4 3d
       -0.07252757 -0.07935786 -0.118233494 0.087906376
0003a0 63 5f 17 3d fc 2c e1 3d 7c 29 59 3d 31 3d 1d 3d
       0.036956202 0.10994908 0.05301808 0.038388435
0003b0 b4 1a bf 3b 24 18 ed bd 80 9c ce bd 1e d5 d0 bd
       0.0058320407 -0.1157687 -0.10088444 -0.10196899
0003c0 f3 0a 31 3d 03 00 1e bd 76 d8 00 bd fc 9a e5 bd
       0.043223333 -0.03857423 -0.031456433 -0.112112015
0003d0 24 81 23 bc ca aa 4f bd 98 54 8d bd 92 37 d8 3d
       -0.00997952 -0.050699987 -0.069009006 0.10557474
0003e0 aa 75 5d bd 35 d0 8d 3d d1 d7 2c bd ba 79 c6 bd
       -0.05406729 0.06924478 -0.042198006 -0.09691186
0003f0 37 14 3c bd 46 5c 92 bd 24 ad 74 bd 3d 9a 05 be
       -0.045917716 -0.07146506 -0.059735432 -0.13047118

model.0.bias f4 [128]
000000 f3 72 b1 bd b6 95 fc ba 97 af e9 bd ef 0d e4 3d
       -0.08664503 -0.0019270692 -0.11410444 0.1113547
000010 86 4b 8f bd 7f 09 c9 bd 3a 13 fc 3d f5 27 9a bd
       -0.06996827 -0.09816264 0.12308355 -0.075271524
000020 a7 b2 7b bd 69 2d 40 39 57 ea 29 3d 1d 8f 45 bd
       -0.061449673 0.00018327463 0.04148325 -0.048232187
000030 ec a8 91 3d 8a b1 a9 bd cf 8b c2 3c 14 42 04 be
       0.071122974 -0.08285816 0.023748307 -0.12915832
000040 74 d5 ed bd 97 be 30 3d bd 70 80 3d 20 12 6e bd
       -0.116129786 0.04315051 0.06271503 -0.058122754
000050 a1 87 37 3d c6 15 07 bd 8d 55 99 3d 82 2e 44 3c
       0.04480708 -0.03297975 0.07487021 0.011973979
000060 f2 4a eb bc 43 ae d7 3c 0b 0d f8 bd c8 1d 8d 3d
       -0.02872226 0.026328212 -0.12111863 0.06890446
000070 ce 63 f5 3d ef 51 e6 3d 62 93 9e bd 45 6b 52 bd
       0.11981927 0.11246096 -0.07742955 -0.05137183
000080 22 7e 6a bd d9 73 b8 3c 9e 25 ba bd 8f d2 c3 bd
       -0.057249196 0.022516178 -0.09089206 -0.09561645
000090 87 1f 55 bd 41 2b e2 3d 96 bc 0c 3d 8f 32 eb bd
       -0.05203202 0.11043406 0.034359537 -0.11484253
0000a0 93 15 73 bd 32 dd cb bd 01 22 85 bc 31 4e 9e 3b
       -0.059346747 -0.09954299 -0.016251566 0.0048310985
0000b0 99 3e b1 bd 27 0d ce bd 25 1e d9 bc 45 db c2 3b
       -0.08654518 -0.10061102 -0.026503632 0.005946549
0000c0 cb 79 c2 3d 7d 10 4c 3d fd 52 9b bd ca 2d f7 bd
       0.094958864 0.049820412 -0.07584188 -0.120692804
0000d0 b1 a8 ce 3c 0e 28 7f bc 7d 96 96 3d 32 80 b8 bd
       0.025226923 -0.015573515 0.07352922 -0.09008826
0000e0 16 2d 17 bc 8f 54 b6 bd a4 64 81 bd 43 ff 9d bd
       -0.009227058 -0.08902847 -0.06318024 -0.07714703
0000f0 b1 18 e0 bc c8 6f 03 bc c2 b3 f1 3d 00 c5 ec 3d
       -0.027355524 -0.008022256 0.11801864 0.11561012
000100 fe fe cf 3d 8b b0 03 3d 39 89 5b 3b 6d bc fa 3d
       0.10156058 0.032150786 0.003349854 0.122429706
000110 d0 77 b9 bd 92 68 ee bd a4 4f 92 bd ef 46 cb 3d
       -0.090560555 -0.11641039 -0.071440965 0.09925639
000120 3f 1a 01 3e 63 2a 71 bd de ec ac bd fa 7a ea bd
       0.12607668 -0.058878314 -0.08443616 -0.11449237
000130 09 ad 7b 3d 9a 7f 4e bd 88 7d b7 3d 6f 7a 3f bd
       0.061444316 -0.05041466 0.0895949 -0.04674762
000140 e5 16 f2 3d 71 ab aa 3d 31 9b ad 3d fd 7a 8c 3d
       0.11820773 0.08333481 0.08476866 0.06859396
000150 a3 49 d8 bd d6 f2 8d 3c c1 6d 9b bd 3d 57 1f bd
       -0.1056092 0.017327707 -0.07589293 -0.038901556
000160 3b a7 a3 3d 85 06 86 bd 70 86 ac 3d 10 12 cf 3b
       0.07990881 -0.06544212 0.084240794 0.006319292
000170 f6 c6 76 bd b1 10 81 bd 25 d3 03 be aa ee 30 3d
       -0.060248338 -0.06302012 -0.12873514 0.043196358
000180 94 45 9b 3b 8f 55 ea 3d 3d e5 3d 3d c4 d0 1c 3d
       0.004738519 0.114421 0.046361197 0.038285032
000190 b8 75 0b bc fe d7 79 3d 08 5e b4 bc 5a 5e 40 3d
       -0.008511953 0.060997 -0.022017494 0.04696498
0001a0 1a ab 6e bd d9 a6 a0 3d 84 52 19 3d 32 e5 85 3d
       -0.058268644 0.07844324 0.03743221 0.06537856
0001b0 95 20 1d 3c be d0 7f 3d 79 45 f3 3d c1 70 ac 3c
       0.009590288 0.06245493 0.11878485 0.021049859
0001c0 31 e7 b5 3d 0a 57 ef bd 5f 50 38 bc 8f cf e7 bd
       0.08881987 -0.11686523 -0.011249631 -0.113188855
0001d0 29 fd 26 3c 51 9c ec 3c 7c 58 1b 3d c3 bc 57 bd
       0.010192194 0.028883131 0.037926182 -0.05267025
0001e0 4a 26 74 3d fe 01 5e bd aa 5f 1b bd 59 b6 c9 3d
       0.059606828 -0.05420112 -0.03793303 0.09849233
0001f0 23 ac f7 bd b7 b6 d2 3c 2a d8 df bd fa 0a 78 3d
       -0.12093379 0.02572189 -0.10929902 0.060557343

model.1.weight f4 [128]
000000 5d 28 7e 3f cd d4 7b 3f 8a 0f 7f 3f 50 db 78 3f
       0.9928034 0.98371583 0.99633086 0.97209644
000010 7e 5b 81 3f b7 58 7d 3f 3d 93 81 3f 52 f0 84 3f
       1.0106046 0.98963493 1.0123059 1.038584
000020 fb e2 85 3f e7 94 80 3f f5 6c 7c 3f e0 68 82 3f
       1.0459894 1.0045441 0.98603755 1.0188255
000030 5c 71 81 3f 94 6e 76 3f 38 de 77 3f 9a 56 80 3f
       1.011272 0.9626248 0.96823454 1.0026429
000040 c2 3a 80 3f 62 51 80 3f 30 32 7b 3f 2a 06 80 3f
       1.0017931 1.0024836 0.98123455 1.0001881
000050 c3 85 79 3f 4e 65 7c 3f ec a5 84 3f c1 f7 76 3f
       0.9746973 0.9859208 1.0363135 0.9647179
000060 f4 24 77 3f 33 2e 80 3f e1 39 7f 3f 0f f5 81 3f
       0.9654076 1.0014099 0.9969769 1.0152911
000070 ac 84 7d 3f fd f0 82 3f e2 e3 78 3f eb 6a 7b 3f
       0.99030566 1.0229794 0.9722272 0.9821002
000080 7b 4e 80 3f c6 03 80 3f dd b4 84 3f 27 42 81 3f
       1.002395 1.0001152 1.0367695 1.0098313
000090 c8 9c 80 3f 5b f9 87 3f f0 51 7d 3f ea 71 7c 3f
       1.0047846 1.0622972 0.9895315 0.9861132
0000a0 2c c4 78 3f aa d2 83 3f 7b 9c 76 3f c6 f3 7e 3f
       0.97174335 1.0298665 0.9633252 0.9959072
0000b0 86 8a 73 3f f3 49 8b 3f 5d 9e 78 3f 05 1d 81 3f
       0.95133245 1.0881943 0.97116643 1.0086981
0000c0 5a b0 7c 3f 56 ac 7e 3f b2 97 7c 3f 78 6c 7d 3f
       0.9870659 0.99481714 0.9866897 0.98993635
0000d0 51 5c 7d 3f 35 3b 79 3f a2 7a 74 3f e0 e4 79 3f
       0.9896899 0.9735597 0.9549962 0.9761486
0000e0 58 53 79 3f 93 26 89 3f 33 91 7d 3f 1b 21 76 3f
       0.973928 1.0714897 0.9904968 0.96144265
0000f0 41 45 75 3f d5 f1 81 3f 14 ca 77 3f 27 c0 79 3f
       0.958088 1.0151926 0.9679272 0.97558826
000100 63 a5 77 3f a8 9e 79 3f 17 44 7f 3f 5a 00 7a 3f
       0.96736735 0.97507715 0.9971327 0.97656786
000110 e0 f0 83 3f 03 71 7d 3f f6 b6 70 3f a7 36 7f 3f
       1.0307884 0.9900057 0.94029176 0.9969277
000120 0a 38 80 3f b8 e8 7a 3f 71 3c 74 3f 36 af 75 3f
       1.0017102 0.9801135 0.95404726 0.95970476
000130 03 6c 79 3f 1f 53 81 3f a0 15 86 3f a0 c2 7c 3f
       0.9743044 1.0103492 1.047535 0.98734474
000140 25 01 7d 3f b7 c5 79 3f 35 e9 7b 3f a1 64 7d 3f
       0.9882987 0.97567314 0.9840272 0.9898167
000150 a9 38 77 3f 28 a1 7d 3f 19 f6 81 3f 74 40 85 3f
       0.9657083 0.9907403 1.0153228 1.0410295
000160 93 e1 72 3f 31 19 7e 3f da 64 79 3f 6e 96 80 3f
       0.9487545 0.9925719 0.9741951 1.0045907
000170 c0 ee 82 3f e5 4d 80 3f 7e 46 82 3f 3f d3 7a 3f
       1.0229111 1.0023772 1.0177763 0.97978586
000180 db 15 79 3f 03 4d 76 3f bd f7 7b 3f 4a b4 7d 3f
       0.97298974 0.9621126 0.98424894 0.99103224
000190 93 86 7f 3f 1e 45 76 3f b5 88 74 3f 08 05 82 3f
       0.9981472 0.96199214 0.955211 1.0157785
0001a0 51 02 80 3f 77 90 87 3f c7 25 80 3f 15 e4 82 3f
       1.0000707 1.0590962 1.0011529 1.0225855
0001b0 7e e5 80 3f 21 de 7f 3f 89 a7 83 3f 8a 4d 7d 3f
       1.0070035 0.99948317 1.0285503 0.9894644
0001c0 bd 44 7c 3f a1 2e 7e 3f 60 6c 7c 3f ec 76 7c 3f
       0.98542386 0.992899 0.9860287 0.9861896
0001d0 7f 28 7e 3f fd 2c 80 3f 09 e5 7a 3f ab 19 73 3f
       0.9928054 1.0013729 0.9800573 0.9496104
0001e0 93 95 80 3f fb 28 80 3f 5a 64 80 3f f3 16 81 3f
       1.0045646 1.0012506 1.0030625 1.0085129
0001f0 40 71 71 3f 03 8a 75 3f 40 91 7b 3f a3 c0 7d 3f
       0.9431343 0.95913714 0.9826851 0.99122065

model.1.bias f4 [128]
000000 22 ef 49 3c f0 29 5b bc 28 02 fd ba e4 ac 33 bd
       0.01232508 -0.013376698 -0.0019303011 -0.043866053
000010 c8 7f 75 bc b7 bd 2b bd 4f ee 0f bd 8b 02 75 39
       -0.014984079 -0.041928973 -0.03513938 0.00023365968
000020 0c 0a 26 3d a6 04 8d 3c 19 b8 bb bc 1c be 9a 3c
       0.040536925 0.01721413 -0.022914933 0.01888948
000030 f5 b5 46 3c ab 61 4b bd 9f 02 15 bc a1 78 e9 bc
       0.012128343 -0.04965369 -0.009094863 -0.028499903
000040 26 f3 aa bc 1c dc 7c bd 33 80 9b bb 48 d6 4f bc
       -0.020867895 -0.06173335 -0.004745507 -0.012685366
000050 34 20 67 bd 98 d2 37 bc d5 93 9f 3c 21 c4 f8 bc
       -0.056427196 -0.011219643 0.019479671 -0.030366959
000060 72 25 aa bb 23 8e 11 bb b2 cd 5a 3c 1e d6 4a bd
       -0.005192452 -0.0022209964 0.013354706 -0.049520604
000070 09 1a d4 3b ac c4 8b bc 6c 1d 7b 3c c0 e1 75 bc
       0.00647283 -0.017061554 0.015326839 -0.015007436
000080 5b cb 8f bc 8c 6d d6 3c 78 39 0f bd 22 a5 f4 3c
       -0.017553022 0.026175283 -0.034966916 0.029863898
000090 02 3e 9b bb 49 e8 92 3c 3c bf e1 3b 0e 01 aa 3b
       -0.0047376165 0.017933028 0.006889252 0.005188114
0000a0 28 f1 6a 3c d8 9b a7 bc 44 9a 34 bd d8 29 05 bc
       0.014339723 -0.020460054 -0.04409243 -0.008127652
0000b0 73 bc d6 bc 01 3a 7b 3d f0 94 05 bd 38 21 4b bc
       -0.026212906 0.061334614 -0.03261274 -0.012398057
0000c0 51 db 0c bd 4e db 1c 3d 18 f6 58 bc 9c e6 26 bc
       -0.034388844 0.038295083 -0.013242267 -0.0101868175
0000d0 09 b4 b7 bc cc c1 12 bd 11 f5 38 bd d1 29 32 bb
       -0.022424715 -0.03582935 -0.04515559 -0.002718557
0000e0 e3 73 13 3c df 24 58 3c b2 0d 04 bd 40 6b ee bc
       0.0089997975 0.0131923845 -0.032239623 -0.029103875
0000f0 d1 91 68 ba b7 59 23 3d f6 e1 83 bd 95 41 a8 bc
       -0.0008871826 0.03988048 -0.06439583 -0.020539084
000100 65 bf 87 bc 28 a7 00 bd 06 f1 35 bc 5e 88 8a bc
       -0.016570756 -0.031409413 -0.011104828 -0.016910728
000110 a6 b4 57 3d 36 fb d7 bc cb c6 55 bd e4 ac d0 bb
       0.052662514 -0.026364904 -0.052191537 -0.0063682664
000120 ed c2 e8 bc 3d c7 b8 3c 95 e0 ec bc 78 d1 23 bd
       -0.02841326 0.022555942 -0.028915683 -0.039994687
000130 84 d0 da bc c0 62 e7 bc 02 9f 44 3c 69 b9 cd bb
       -0.026710756 -0.02824533 0.012000801 -0.006278206
000140 37 f6 5d 3c 92 5d 90 b8 58 fe 30 bb 82 d7 e1 bb
       0.013547472 -6.883884e-05 -0.002700707 -0.0068921456
000150 11 d2 8d bc 32 31 a4 bc 19 67 47 bc 53 fa 1c 39
       -0.017312082 -0.02004299 -0.0121705765 0.00014970572
000160 e4 28 37 bd 86 af 7f bc 15 d8 2f bd 2d 1f ab bc
       -0.04471673 -0.015605813 -0.04293068 -0.02088889
000170 8a b9 5e bb 12 35 01 3d 77 38 15 3c df 80 c8 bc
       -0.0033985102 0.031544752 0.009107701 -0.024475513
000180 1a 2a f7 bc 1c 9a bb bc a5 85 7e 3c f0 29 0b 3d
       -0.030171443 -0.022900634 0.015534793 0.03397554
000190 2e 2f 0a bc fd 1e d7 bc 03 c4 11 bd 78 39 be 3c
       -0.0084341 -0.026259894 -0.035587322 0.023220763
0001a0 50 61 cf 3b 06 47 24 3d dd 63 d7 bc ac 17 d8 3c
       0.006328739 0.040106796 -0.026292736 0.026378475
0001b0 ce 1e 33 3c e8 27 61 3c 7d ce 6c 3b f9 01 ac bc
       0.010932637 0.013742425 0.0036133819 -0.020997034
0001c0 d0 c4 3a bc 94 90 3f 3c b4 c4 5b 3b 1d 2d 50 bc
       -0.011399463 0.011692185 0.0033533992 -0.012706068
0001d0 93 f6 1d bd 82 8d 2b 3c d6 de 12 bd e2 47 41 bd
       -0.03856523 0.01047075 -0.035857044 -0.047187693
0001e0 7c 11 c2 bc b8 79 8f bc 15 87 0a 3d 41 00 a7 bc
       -0.023689978 -0.017514095 0.03382023 -0.020385863
0001f0 85 7b 1b bd 22 59 e2 bc d8 9c 3e bb 39 a6 2b bd
       -0.037959594 -0.027630392 -0.0029085185 -0.04190657

model.1.running_mean f4 [128]
000000 a8 ee b4 bd 4e 0b db bc b1 1f f0 bd 28 3c 03 3e
       -0.088345826 -0.026738789 -0.11724795 0.12815917
000010 ff c6 b0 bd 32 fc b5 bd 4e db e8 3d c3 af 7c bd
       -0.086317055 -0.08885993 0.11369954 -0.061691057
000020 06 4e 32 bd 5e b2 82 3c b0 7b ca 3c 95 07 95 bc
       -0.04353144 0.015954193 0.024717182 -0.018192092
000030 c6 1a 9b 3d 60 bb 94 bd 89 32 af 3c 9a f2 0c be
       0.07573466 -0.072623014 0.021386402 -0.1376442
000040 07 c7 dd bd be f1 12 3d 8a cb 49 3d 23 6d 67 bd
       -0.10828977 0.035875075 0.049266376 -0.056500565
000050 19 34 1e 3d 5b 3f b3 bc d2 32 6f 3d 76 d1 95 3c
       0.038623903 -0.021880796 0.058398075 0.018288355
000060 a6 80 a2 bc 66 b9 f9 3c 47 86 05 be 28 62 5e 3d
       -0.019836735 0.030483913 -0.13039504 0.054292828
000070 e8 1f 02 3e 95 38 0b 3e cd 24 a3 bd 56 f3 69 bd
       0.12707484 0.13595803 -0.079660036 -0.05711683
000080 db 3f 40 bd 23 10 8d 3c 63 d0 ca bd e6 5f ad bd
       -0.046935897 0.017219609 -0.09903028 -0.08465557
000090 d2 a5 67 bd e1 78 d0 3d 8f fb 0b 3d cd af 00 be
       -0.056554623 0.10179306 0.03417545 -0.12567063
0000a0 7a 00 8c bd 55 ec c4 bd 63 29 ac 3a 2c 48 df 3b
       -0.068360284 -0.09615389 0.0013134893 0.0068140235
0000b0 e9 c5 a4 bd 4c 9f f3 bd 17 af 85 bc f7 a2 8a 3b
       -0.08045561 -0.11895618 -0.01631884 0.0042308527
0000c0 2c c3 bc 3d 83 ce 03 3d 6d d8 a2 bd 30 61 0a be
       0.092169136 0.032179367 -0.07951436 -0.13513637
0000d0 51 1d 8b 3c a9 4b 24 bd f4 57 a3 3d 4b 90 c4 bd
       0.016981753 -0.040111218 0.0797576 -0.09597834
0000e0 d2 40 55 bc 2a 81 cb bd fc c4 82 bd 58 ab b8 bd
       -0.013015943 -0.099367455 -0.06385228 -0.09017056
0000f0 6e f2 cf bc 36 1c 15 3c b4 33 d3 3d 54 10 e0 3d
       -0.025384154 0.009100964 0.10312596 0.10940614
000100 b1 bb f5 3d 2e 5d 36 3d d4 3a 86 3c 48 72 de 3d
       0.1199869 0.044522457 0.016385473 0.10861641
000110 e1 5e a5 bd ed 61 ee bd 50 42 a8 bd 3c 25 a0 3d
       -0.08074737 -0.116397716 -0.08215773 0.07819602
000120 e2 0a 10 3e f7 10 52 bd df 7c cc bd 19 54 01 be
       0.14066651 -0.05128571 -0.09984755 -0.12629737
000130 8b 66 7f 3d 9d dc 1e bd 63 89 94 3d 89 22 2a bd
       0.062353652 -0.038784612 0.07252767 -0.04153684
000140 2c 7e c4 3d 60 21 cc 3d b7 2c bd 3d e6 4b 86 3d
       0.09594378 0.09967303 0.09237044 0.06557445
000150 3d 22 00 be e2 ad 4b 3c 5d 0b b0 bd d8 20 0c bd
       -0.12513061 0.012431594 -0.085959174 -0.03421101
000160 69 cf 8e 3d 69 91 66 bd 6e fa ae 3d 6a e0 56 bc
       0.06973154 -0.056291018 0.085438594 -0.013115028
000170 62 c6 3b bd 71 24 5c bd 74 03 e5 bd ca 83 41 3d
       -0.04584349 -0.05374569 -0.11182299 0.047244824
000180 17 08 93 bb c4 9a e8 3d 27 00 fc 3c 63 e8 96 3c
       -0.0044870484 0.11357644 0.030761791 0.018421357
000190 6c ed 0c bb 31 7c 9e 3d 78 02 68 bc b6 13 fe 3c
       -0.002150382 0.077385314 -0.014160745 0.031015258
0001a0 17 41 94 bd 7e c0 7d 3d e5 24 61 3d 25 31 a4 3d
       -0.072389774 0.061951153 0.054966826 0.08017186
0001b0 f2 9f d1 3c c1 bc 92 3d 3f 78 f7 3d 6b 26 26 3c
       0.025588963 0.07164908 0.12083482 0.0101409955
0001c0 e9 c8 d8 3d e5 ea 05 be b8 79 30 bc de bb 01 be
       0.105851956 -0.13077886 -0.0107712075 -0.12669322
0001d0 71 d7 43 3c e9 fc d4 3c b3 82 d6 3c 65 fd 8a bd
       0.011953221 0.025999503 0.02618537 -0.067866124
0001e0 84 da 8c 3d 3e 33 65 bd 75 60 1a bd 76 33 cf 3d
       0.06877616 -0.05595707 -0.037689645 0.10117237
0001f0 a5 37 e0 bd 4f 7f 21 3d ec 88 cb bd 30 59 a9 3d
       -0.10948113 0.03942805 -0.09938225 0.08268964

model.1.running_var f4 [128]
000000 ba b6 15 3e a3 99 97 3f cd 54 e7 3e 23 9e 80 3e
       0.14620486 1.1843761 0.45181885 0.2512065
000010 02 43 e4 3e 30 08 d8 3e ea ee 73 3e 9d 72 80 3e
       0.44582373 0.42193747 0.23821607 0.25087443
000020 98 ee 46 3e 7c 37 fe 3e 81 90 26 3f 69 7e c2 3f
       0.19426954 0.49651706 0.65064245 1.5194827
000030 b6 a6 09 3f 15 a3 f9 3e 25 36 93 3e 62 ac 03 3f
       0.53770006 0.48757234 0.28752246 0.5143491
000040 f2 74 b8 3e 5f 7d 96 3e af b3 24 3f 66 d1 2f 3f
       0.36026722 0.29392526 0.64336675 0.6867889
000050 39 78 e4 3d 57 94 47 3f a9 e3 65 3e 07 e2 b1 3e
       0.11155743 0.77960724 0.22450127 0.34742758
000060 79 85 06 3f 91 54 25 3f 64 f6 c8 3e 02 27 e2 3d
       0.52547413 0.64582163 0.3925048 0.110425964
000070 31 1d e9 3e c0 5e 8d 3f 32 14 b1 3e 34 68 b2 3e
       0.45530084 1.104454 0.3458572 0.34845126
000080 5a 7d 64 3f a2 cf 40 3e 5b 69 d3 3e 56 a9 b3 3e
       0.8925377 0.18829206 0.41291317 0.3509013
000090 c2 83 22 3e 8b bd ac 3d 86 23 c2 3e 75 37 2a 3f
       0.15870574 0.0843459 0.37917727 0.6649087
0000a0 09 bb 2f 3e a7 14 1e 3e 4c 2e f2 3e 6d 3e 61 3e
       0.17161192 0.15437566 0.47300947 0.2199647
0000b0 94 86 ab 3e 8f 20 01 3f d3 34 28 3f 49 25 81 3e
       0.33501112 0.50440305 0.65705603 0.2522376
0000c0 1b 73 45 3e 57 12 49 3f b2 e3 0b 3f c9 a6 82 3f
       0.1928219 0.7854361 0.5464431 1.0207149
0000d0 f1 a0 7f 3e 02 79 40 3f ac 7b a2 3e a5 b8 c3 3e
       0.24963738 0.75184643 0.3173498 0.3822681
0000e0 3d 0c bf 3e 34 14 5f 3d f2 71 09 3e 9c 58 fe 3e
       0.37314025 0.054462627 0.13422373 0.4967698
0000f0 0e fa 8c 3e a3 cb 7f 3e 77 59 62 3e 8a d3 df 3e
       0.27534527 0.24980025 0.2210444 0.4371608
000100 a8 f2 53 3f 04 45 00 3f 19 b2 bf 3e ee 18 53 3f
       0.8279214 0.5010531 0.37440565 0.82459915
000110 6b d6 20 3e c1 01 92 3e 35 00 ec 3e 00 3f f3 3e
       0.15706794 0.28516963 0.46093908 0.47509003
000120 15 f8 a4 3f 47 cb 6f 3d 33 04 7a 3f 99 fa b4 3e
       1.2888209 0.05854347 0.9766266 0.3534744
000130 02 32 a3 3e 45 98 9e 3f da 61 2b 3f 5a 43 dd 3e
       0.3187409 1.2390219 0.66946185 0.43215448
000140 1d 4d 8a 3f 01 99 30 3f 88 12 04 3e b6 dd 2c 3f
       1.0804783 0.68983465 0.12897694 0.67525804
000150 02 e3 74 3f 18 8f 3b 3f b4 68 40 3e d2 08 a9 3e
       0.95658886 0.7326522 0.18789941 0.33014542
000160 97 9a 78 3f 30 68 2c 3f 1c 38 12 3e 68 58 b4 3f
       0.97110885 0.6734648 0.14279217 1.408948
000170 66 24 92 3e 5b 8b f4 3e 13 6a 37 3f 1a c2 3a 3f
       0.28543395 0.4776257 0.7164623 0.72952425
000180 c3 9a 96 3f 4d 38 1a 3e 03 fb 2a 3e d6 bc 22 3f
       1.176598 0.1506054 0.16697316 0.6356939
000190 de 04 00 3e a6 da 4e 3f 10 4f f7 3e d5 96 1f 3f
       0.12501857 0.8080238 0.48302507 0.62339526
0001a0 03 92 e5 3e 16 b6 04 3f 26 22 8f 3e 47 ae 10 3f
       0.4483796 0.5184034 0.2795574 0.56515926
0001b0 09 93 77 3f a4 f2 5a 3e 00 dc 3c 3e 55 b4 35 3f
       0.9670873 0.21381623 0.18443298 0.7097829
0001c0 83 6e 06 3f 04 96 01 3f bc 6a f7 3e ed 99 7d 3e
       0.5251238 0.5061953 0.4832362 0.2476575
0001d0 57 e6 c7 3e 7b 5c 11 3e df 3b fa 3e 7b 53 b7 3e
       0.39042923 0.14195435 0.48873803 0.35805878
0001e0 53 01 af 3e 75 5d f1 3e e6 6f 25 3e 81 ec 3f 3f
       0.34180698 0.47141615 0.16155967 0.7497025
0001f0 71 2f ee 3e f3 ae de 3e 88 1e 1c 3e ba 95 ff 3e
       0.4652057 0.4349285 0.15246022 0.4991892

model.4.weight f4 [64, 128]
000000 38 1f c0 bd 5b cf f0 bd 6b 86 7a bd ef d0 b3 3d
       -0.093809545 -0.117583 -0.061163347 0.08780085
000010 0a 6c 0d bc d3 fb 7a 3d a6 01 4c bd cc 7b e0 3d
       -0.008631716 0.061275315 -0.04980626 0.109611124
000020 d3 e7 63 bc 2c 7d 4b 3c 85 07 cb bd 4c 70 83 3d
       -0.013910252 0.01241998 -0.099135436 0.06417903
000030 a2 32 04 3d 5b 29 8e bd 79 8e 92 3d 5d 8a 1a 3c
       0.03227485 -0.06941482 0.07156081 0.009432402
000040 3f 0d 91 3d 24 df c4 bd 87 3a 12 3d 4e 1e f5 bc
       0.070826046 -0.09612873 0.035700347 -0.029921677
000050 75 ed f9 3c d0 7d 28 bd 66 06 99 3c 14 39 64 bd
       0.030508736 -0.04113561 0.018679809 -0.055718496
000060 bc 69 77 3d c2 bc 57 bd 80 5e 40 bd a9 6f da bd
       0.06040357 -0.052670248 -0.046965122 -0.10665829
000070 da b7 bd 3c 25 51 30 3c a0 37 ba 3c af 7d 74 3d
       0.023158956 0.010761534 0.022731602 0.059690174
000080 4d 30 8a 3d 4c 63 e6 bc db ab 33 3d af af 58 3c
       0.06747494 -0.02812352 0.043865066 0.01322548
000090 8f 24 d8 bc cb 9c 91 bd 1d 00 aa 3b 22 03 9a 3d
       -0.02638462 -0.07109984 0.005188002 0.07520129
0000a0 20 39 9b ba 01 7a 93 3d f7 c8 a5 3c 95 80 91 bd
       -0.0011842586 0.07201005 0.020237429 -0.07104603
0000b0 df 87 97 3c 0c e2 b0 bd 74 13 90 bc c1 d6 b2 bc
       0.018497406 -0.08636865 -0.017587401 -0.021830918
0000c0 50 39 ca bd f6 cc e2 3c 53 68 4a 3d c1 0e b3 bd
       -0.09874213 0.027685624 0.049415898 -0.087430485
0000d0 8e b4 06 3d b1 61 90 bd c1 c3 78 bd 22 40 ec 3c
       0.032887034 -0.07049883 -0.06073356 0.028839175
0000e0 04 5e c3 bb 5e 1e 01 be fb e1 23 3d f0 97 60 3c
       -0.0059621353 -0.1260924 0.040010434 0.0137081
0000f0 37 f4 1c bd 33 cb 96 3d d8 7b dc bc 8b b3 9c 3c
       -0.03831884 0.07362976 -0.026914522 0.019128582
000100 8b 13 fa bc 93 97 d4 3c ef 99 6e 3d 4e ed ee bc
       -0.030526897 0.025951182 0.05825227 -0.02916589
000110 b2 1d 4a 3d b5 1b bd bd f4 04 3b bd fc 47 e9 bc
       0.049344726 -0.092338 -0.04565902 -0.028476708
000120 1a 5a 47 bd 8d 51 a8 3c 96 8f 45 bd b6 98 59 3c
       -0.048669912 0.020546699 -0.048232637 0.013281038
000130 15 86 86 3b 6f 50 d8 3c c6 24 dd bd bc d1 bb bc
       0.0041053393 0.026405541 -0.107980296 -0.022927158
000140 58 cd 5c 3c 29 21 d4 3d 45 db 53 bc 46 ff 9d bd
       0.013476692 0.10357887 -0.012930696 -0.07714705
000150 b9 2f c1 bc 6b d4 a0 bd bf 4a 20 bd 02 56 c3 bc
       -0.023582326 -0.078530155 -0.039133783 -0.023844723
000160 b5 aa 5d 3d f4 e3 7f 3d 67 de 95 bd 74 ff a5 3d
       0.054117877 0.062473252 -0.073178105 0.081053644
000170 8e 04 31 3d b7 8e 59 bd c6 5e 8e 3d e7 d9 8b bd
       0.043217234 -0.05311462 0.0695167 -0.06828671
000180 78 18 57 bd 31 ae 57 bd 21 03 d2 bd 4f ce 0a bd
       -0.05251357 -0.052656356 -0.10254503 -0.033888157
000190 d2 ec 70 3d 2c 9e ea 3c 95 d5 8b bd 7e 60 fa bd
       0.0588196 0.028639875 -0.06827847 -0.12225436
0001a0 24 ca fa bc 07 52 03 3d f0 3a 67 3d 3d eb b7 3d
       -0.030613966 0.03206065 0.05645269 0.08980415
0001b0 99 a8 f2 bc 1d 73 f9 3c 2f 94 24 bd c6 0f ab ba
       -0.02962141 0.030450398 -0.04018038 -0.0013050965
0001c0 07 e8 4f 3c 62 69 af 3b ab bc 65 bd 0d cf c1 bd
       0.012689597 0.005353139 -0.05608813 -0.0946332
0001d0 a0 15 3d bd 13 95 0f bd 6d 4e a3 bc 25 df 5f 3b
       -0.0461632 -0.035054278 -0.019934857 0.0034160104
0001e0 97 ea e9 bb 3e 5e a0 3c a9 a6 b5 bd a3 64 7d 3d
       -0.007138561 0.019576188 -0.088696785 0.061863553
0001f0 e7 15 3d bd c9 7c 4f bd e9 88 5a bd cf 18 79 bd
       -0.046163466 -0.050656114 -0.053353224 -0.060814675
000200 05 50 c5 bc 47 e8 68 3d e0 6f 3c 3d a3 bf 85 bc
       -0.024086008 0.056862142 0.04600513 -0.016326731
000210 59 00 17 ba 85 0a 10 bd 45 31 89 3d de 9c 82 3d
       -0.00057602447 -0.035166282 0.066988505 0.06377576
000220 f0 95 84 3d fe 79 ef bc 1c e5 a5 bd b5 44 5a 3c
       0.06473911 -0.029232975 -0.0810034 0.013322045
000230 0b 4e 82 bd b0 0c eb bc 0b ab 0a 3c 25 f5 95 bd
       -0.06362542 -0.028692573 0.008463631 -0.07322148
000240 eb fb 5b 3c 9f 93 31 bb bc e7 1c bc 2c 1f 9b bc
       0.013426761 -0.0027096046 -0.009576734 -0.018935762
000250 21 5e 47 bd 98 b7 8c bd c4 d6 47 bd 6b e5 45 3d
       -0.048673753 -0.06870955 -0.0487888 0.048314493
000260 40 92 86 3c e8 d5 de 3d 47 4b ca bb d2 ba d9 bc
       0.01642716 0.10880643 -0.0061735245 -0.02657834
000270 32 68 81 3d b5 17 8e bd b0 ee 39 bd 3c 7d 98 3d
       0.06318702 -0.069381155 -0.045393646 0.074457616
000280 6b 28 82 bc e7 6f a7 3d 2c 60 77 bc cb cb dc 3d
       -0.015888413 0.081756406 -0.015098613 0.10781058
000290 f0 04 d4 3c 3c cf 94 3b 46 52 c8 bd 88 ca d1 bc
       0.02588126 0.004541306 -0.097813174 -0.02560927
0002a0 a9 24 6d bb 0b 03 9b 3d 9d 8b 3f 3d 0f 7c b0 bc
       -0.0036185181 0.0756894 0.046764005 -0.02154353
0002b0 d8 40 0b bc c3 ca 87 3d 49 23 bd 3d ff 30 40 3b
       -0.008499347 0.066304706 0.09235246 0.002932608
0002c0 f8 b1 98 bd db 2e 83 bc 07 f8 9d 3d a8 d1 be 3d
       -0.0745582 -0.016013553 0.07713323 0.093173325
0002d0 5b c6 47 bd 0c c5 29 3d b6 c7 a3 bb 76 ce 54 3d
       -0.04877315 0.041447684 -0.0049981726 0.05195471
0002e0 51 66 ca bc 63 ff 96 bd f2 67 ac bd a4 4e 16 3c
       -0.024706991 -0.0737293 -0.084182635 0.009174023
0002f0 61 ee cb 3c 69 5c b4 bc d3 13 40 3d 36 ef 63 3d
       0.024893941 -0.02201672 0.046893906 0.05564805
000300 46 35 3d 3d b5 bf 82 3d a0 53 94 bd 05 f6 82 bc
       0.046193384 0.063842215 -0.07242513 -0.015986452
000310 f7 cb bb 3d be ac 43 3d fc 41 97 bd b3 dc 6a bd
       0.091697626 0.04777216 -0.073856324 -0.05733938
000320 a9 ef 89 3d 06 2a 8b bd f2 11 17 3d aa a2 15 bd
       0.06735165 -0.06795125 0.03688235 -0.03653208
000330 cf 96 1d 3c a5 69 46 3d 2f f2 3b 36 08 e7 01 bd
       0.009618475 0.048440594 2.800614e-06 -0.03171447
000340 48 19 1f 3d a7 40 84 bd 4c 91 2c bd 59 7f 20 bb
       0.03884247 -0.06457644 -0.042130753 -0.0024489968
000350 5b bd 4c bc cf 0c 75 3d b8 a4 66 bd 3a d7 ab 3d
       -0.012496318 0.05982667 -0.05630943 0.083906606
000360 62 26 60 3c 9c d2 b3 3c 6b ee 86 3d ca 65 5a bd
       0.013681026 0.021951012 0.06588443 -0.05331973
000370 b4 9d a8 bd 08 fd 48 3c cb 1a 90 3d ac 4f 83 3d
       -0.082332045 0.012267359 0.0703636 0.064116806
000380 c3 a4 dd bb 60 00 cf 3d 6d f6 6c 3c e0 3d 14 3d
       -0.006764026 0.101074934 0.014463049 0.03619182
000390 d2 1a 62 bd 4e b5 e7 3c ed bf 9c bc 88 af 97 bd
       -0.05520136 0.028284695 -0.019134486 -0.07406527
0003a0 54 9b a9 bd d3 e4 46 bd 0e 03 ba 3c f5 c5 e8 bc
       -0.082815796 -0.048558068 0.022706535 -0.028414706
0003b0 a6 34 9d 3d 3d 68 01 3d 42 54 a3 bd 98 3d 06 3b
       0.076760575 0.03159355 -0.07975055 0.002048349
0003c0 50 e0 b5 3d 2b ff 86 bc 7e b7 a5 3c d4 ca 8f bc
       0.08880675 -0.016479095 0.020229097 -0.01755277
0003d0 84 e0 49 bc c4 10 52 bd 45 13 dd bc 46 e3 6d bc
       -0.012321595 -0.05128552 -0.026986727 -0.014519518
0003e0 a4 e9 d3 3d 45 db a6 bd 72 0b 91 3c 17 c9 31 bd
       0.10347298 -0.08147291 0.017705653 -0.043404665
0003f0 5f c2 0e 3c 79 73 39 bc a4 0f 82 bc 4d 3f 02 3d
       0.008713334 -0.011319035 -0.015876599 0.03179865

model.4.bias f4 [64]
000000 84 56 79 bb 03 5d a5 3d 98 aa 5c 3d c5 e2 d3 3b
       -0.0038045952 0.08074381 0.05387363 0.006466242
000010 9f 59 b1 3d 4c 89 d9 3b 0c 56 10 3d 1b 44 d5 bc
       0.08659672 0.0066386815 0.03523831 -0.026033452
000020 ca 64 9c bd 95 9b 62 bd a6 51 8a bd 94 4a 7b 3d
       -0.076364115 -0.055324156 -0.067538545 0.06135042
000030 ef 9f 1d 3d a8 92 c5 3c c6 47 a3 3d 1a e8 81 bd
       0.038482603 0.024117783 0.07972674 -0.06343098
000040 3b e5 c3 3c 4f e9 56 3b 85 44 a3 bd b3 35 a9 bd
       0.023913017 0.0032792871 -0.079720534 -0.082621954
000050 10 11 ae 3d 50 61 9c 3d 31 df 82 3c 0e c0 6b bd
       0.08499348 0.076357484 0.015975567 -0.057556204
000060 23 43 cf 3b 69 1d 82 3d f4 73 9b bc 87 2e 9b 3b
       0.006325142 0.06353266 -0.01897619 0.004735771
000070 fd 29 31 bd dd 62 82 3d 60 94 68 bd 9f 23 49 bd
       -0.043252934 0.06366513 -0.056782126 -0.049106237
000080 4e bc 94 bc a9 d3 1e bb 08 eb b1 3c 68 b2 95 3d
       -0.018156197 -0.0024235046 0.021718517 0.07309419
000090 c6 2b 6b 3d fd ae 66 3c 3f d1 d1 3c 52 09 9b 3d
       0.057414792 0.014079806 0.025612472 0.07570137
0000a0 19 81 da bc 99 87 25 bd bc b3 84 3d 4f 68 9f 3d
       -0.026672887 -0.04041252 0.06479594 0.07783567
0000b0 49 87 b6 bb da 81 78 bb 01 38 84 3d 3b b0 8f bc
       -0.0055703265 -0.0037919194 0.064559944 -0.017540088
0000c0 a8 17 b3 3d 99 4a 81 bd 7d 96 aa 3c 3b 71 83 3d
       0.087447464 -0.063130565 0.020823712 0.064180814
0000d0 b8 d9 ab bd eb c9 ad bc 3d a7 99 3d 04 38 88 3d
       -0.08391136 -0.021214446 0.07502601 0.06651309
0000e0 a3 ac 79 bd a1 bd 93 3d e8 4b 96 3d 69 0b 10 3d
       -0.060955655 0.07213903 0.07338697 0.03516713
0000f0 6a 34 a4 bc b8 d2 4a bd 50 d9 9b bc 6b c2 f8 3c
       -0.020044524 -0.049517363 -0.019024521 0.030366143

model.5.weight f4 [64]
000000 ea 27 82 3f be ab 76 3f 43 96 7c 3f a0 f0 80 3f
       1.0168431 0.9635581 0.9866678 1.0073433
000010 bf 55 7d 3f 65 7b 78 3f ff 24 78 3f b8 d8 7f 3f
       0.98958963 0.97063285 0.9693145 0.9994006
000020 ab cd 81 3f 3e 08 85 3f 86 e1 82 3f 1c 7a 7e 3f
       1.014089 1.039314 1.0225074 0.99405074
000030 a8 4f 83 3f d1 67 7f 3f ff ce 7c 3f ca 23 81 3f
       1.0258684 0.99767786 0.9875335 1.0089047
000040 b9 e4 7d 3f 61 32 81 3f 3e f2 72 3f 2f a4 84 3f
       0.9917713 1.00935 0.9490088 1.0362605
000050 0b 2f 81 3f eb f7 71 3f 43 c3 7c 3f 41 91 70 3f
       1.0092481 0.9451892 0.98735446 0.9397164
000060 4e 0a 88 3f 4d c9 7e 3f 5b 59 83 3f ee 50 83 3f
       1.0628145 0.9952591 1.0261644 1.0259073
000070 05 ee 72 3f 09 af 7d 3f 8e ec 77 3f 23 b3 71 3f
       0.9489444 0.9909521 0.9684533 0.94413966
000080 a8 17 7c 3f 72 be 7f 3f 68 12 84 3f 51 3c 81 3f
       0.98473597 0.9989997 1.0318117 1.0096532
000090 da bf 76 3f 44 38 7b 3f cd 94 76 3f 2d cb 75 3f
       0.9638649 0.9813273 0.963208 0.96013147
0000a0 c5 6f 77 3f f3 c1 78 3f 74 18 7b 3f e0 d2 7e 3f
       0.9665492 0.97170943 0.9808419 0.9954052
0000b0 67 06 81 3f e5 52 7f 3f f9 8f 7f 3f 41 94 80 3f
       1.0080079 0.9973586 0.9982906 1.0045244
0000c0 16 a1 73 3f a1 d3 80 3f d5 e1 81 3f d3 05 7f 3f
       0.9516767 1.0064584 1.0147043 0.9961826
0000d0 1f 3f 81 3f 19 f7 80 3f d8 a9 80 3f 55 27 79 3f
       1.0097388 1.0075408 1.0051832 0.9732564
0000e0 0f 8d 84 3f 52 b2 79 3f 5c d2 86 3f 47 e5 77 3f
       1.0355548 0.9753772 1.0532947 0.96834224
0000f0 dc 24 7d 3f 99 ee 7e 3f 67 61 85 3f 79 6b 7a 3f
       0.9888437 0.9958282 1.042035 0.9782024

model.5.bias f4 [64]
000000 a9 f0 4c 3d db 39 00 bd 7f ac 8d bc ab 02 ee 3c
       0.0500342 -0.031305175 -0.017294167 0.029054007
000010 60 f5 7d 3c 8b e5 ae bc 5a 3f aa bc 6e 47 a7 3c
       0.0155003965 -0.021349689 -0.020782162 0.020419803
000020 7c b5 6e bc 0f 8d f4 3c 49 9d 53 3d 2b 10 48 bc
       -0.014569636 0.029852418 0.05166367 -0.012210886
000030 96 11 91 3c df a7 85 bc cc 55 4e bc 23 4f 9e 3c
       0.017708581 -0.016315399 -0.012593698 0.019324845
000040 cd a0 18 3c ec 48 b1 3c 88 68 ff bc 7b ad 35 3d
       0.009315682 0.021641217 -0.031177774 0.044354897
000050 0a 68 c7 bb f6 72 1e bd ac 74 9e bb 99 1f 3a bd
       -0.0060854005 -0.038683854 -0.0048356857 -0.04544029
000060 ef 86 dc 3c ee f0 01 3d 93 74 d1 3c 92 18 59 3d
       0.02691981 0.03172391 0.025568282 0.053001948
000070 b1 85 27 bd c7 87 93 3a 2a 62 a0 bc e8 d2 2c bd
       -0.040898982 0.0011255675 -0.019578058 -0.042193323
000080 dc 0b 1d bc 67 ec b9 3c b9 ff 3c 3d ae 07 3c 3c
       -0.009585347 0.022695733 0.046142314 0.01147644
000090 e2 75 f7 bc 92 22 f7 3b a9 15 1a bc 5e af aa bb
       -0.030207578 0.007541963 -0.009404578 -0.0052088937
0000a0 9a b7 da bc aa d6 a5 bb 40 02 97 3b 1b 6f 94 3c
       -0.026698876 -0.0050609903 0.0046084225 0.018119385
0000b0 09 cc d5 3b 8d 8c 9e 3b 6b 47 aa 3b 31 e7 d1 bb
       0.006524567 0.0048385323 0.005196502 -0.006405734
0000c0 5f b9 69 bd d8 cb a6 3c 12 d8 6f 3c 69 a9 08 3b
       -0.05706155 0.020360872 0.0146389175 0.002085293
0000d0 c2 3b 22 3d b6 af e8 3c a9 c2 32 3d 46 c6 16 bc
       0.03960777 0.028404098 0.043642674 -0.0092025455
0000e0 f6 a8 b7 3c 99 75 1d 3a d7 bc 29 3d 62 73 b8 bc
       0.022419434 0.0006006598 0.041439857 -0.022515956
0000f0 f3 2c d6 3c 70 0b 88 bc 8f 8d 3d 3d ef ef 17 bc
       0.02614448 -0.016607016 0.04627758 -0.009273513

model.5.running_mean f4 [64]
000000 58 76 02 bf 0d 7e 5d 3e 4b 7c 9f be b4 45 8b be
       -0.5096183 0.21630116 -0.31149516 -0.27201617
000010 15 2e ee 3c 89 6a 5e 3e b5 2b 09 bd 75 fb 6d be
       0.029074708 0.21720327 -0.033488948 -0.23240454
000020 dd 14 0d be 3a 8d 03 be bf 98 4b 3e 69 03 62 3e
       -0.1377749 -0.12846842 0.19882487 0.22071613
000030 f3 e8 a3 3d 31 cb de bc d2 26 92 3e c7 31 98 be
       0.08003416 -0.027196499 0.28545243 -0.29725477
000040 b8 28 f7 3d 24 b9 ae be 0e 73 f8 be 8f 24 04 be
       0.12068313 -0.34125626 -0.4852528 -0.12904571
000050 25 ce be 3d ba c2 24 bf 9b 77 a5 bc b1 44 1a be
       0.09316663 -0.6435963 -0.020198634 -0.15065266
000060 78 c6 1c bc 36 08 d1 be d5 22 30 be 2b 9b e5 be
       -0.009568803 -0.40826577 -0.17200787 -0.44844946
000070 31 dd 5c 3e 45 1c 21 3d 30 25 c2 be 5d b2 05 be
       0.21568753 0.0393336 -0.37918997 -0.13056321
000080 ed 55 d8 bd 34 ab e2 bc 58 56 13 bd 55 bf b5 bd
       -0.10563264 -0.027669527 -0.035971016 -0.08874384
000090 b6 9c d1 bd b0 d6 55 be a3 8a 07 be 1d ca 94 be
       -0.10234968 -0.20882678 -0.1323648 -0.2906045
0000a0 13 0e 2f bf 84 34 d7 3d b8 85 32 3c 6b 30 88 3d
       -0.6838085 0.105080634 0.010896139 0.0664986
0000b0 77 8e a7 be 7f bc a9 bd 1f f6 f4 be 43 32 0f 3f
       -0.3272588 -0.08287906 -0.47844025 0.5593607
0000c0 ed df 89 3e f3 e3 42 3e 94 6f 1f be e8 8b 80 bd
       0.26928654 0.19032268 -0.15569907 -0.06276685
0000d0 99 51 c9 be 72 f1 d2 be ef 18 02 bc e2 b7 3c bf
       -0.39320067 -0.41199833 -0.007940515 -0.7371808
0000e0 35 9d 08 bd 21 4f be 3b 04 9a 35 bd 67 75 94 3e
       -0.03335305 0.0058077727 -0.044336334 0.2899582
0000f0 53 30 17 bf e3 47 89 3e e3 1b 01 bf 80 68 c7 be
       -0.5905811 0.26812658 -0.50433177 -0.38946915

model.5.running_var f4 [64]
000000 81 de 0f 3f bb d4 8c 3e 6c a4 c9 3e 1e f5 11 3f
       0.5619889 0.2750605 0.39383256 0.57014644
000010 8b d5 6b 3e 70 ce 05 3f a9 02 f8 3e ef 2a 27 3f
       0.23030679 0.52268124 0.4843953 0.65299886
000020 ce a1 05 3f 0e 62 22 3f fc 43 1d 3f 8e a4 d8 3e
       0.5220002 0.6343087 0.6143186 0.42313045
000030 cb bb 17 3f b6 22 e6 3e 66 00 d3 3e b7 c2 1e 3f
       0.59270924 0.44948357 0.4121124 0.6201586
000040 70 8f 07 3f 31 ee d2 3e b0 4d 04 3f 12 7b 8c 3e
       0.52953243 0.4119735 0.5168104 0.27437645
000050 d0 79 a8 3e b9 ff c2 3e 82 6a 26 3f 30 f3 b7 3e
       0.32905436 0.38085726 0.6500627 0.35927725
000060 78 9e 05 3f ae 80 f2 3e 85 78 54 3f 18 4b f3 3e
       0.5219493 0.473638 0.829964 0.4751823
000070 c3 e1 88 3e bb 78 e9 3e 8d c8 66 3f 3f 01 95 3e
       0.26734743 0.45599923 0.90149766 0.29102513
000080 08 a6 19 3f fd 2b dd 3e 6b 74 3d 3f 1c 8c 4b 3f
       0.6001897 0.43197623 0.74005765 0.79510665
000090 ce e0 93 3e c8 b1 be 3e 09 de 8c 3e ff 1c af 3e
       0.2888245 0.3724501 0.2751315 0.3420181
0000a0 a6 c6 ab 3e 89 51 54 3e bc 01 da 3e 18 d9 c1 3e
       0.33549994 0.20734228 0.42579448 0.37860942
0000b0 86 96 19 3f ff 14 7b 3f 40 6c 04 3f 81 be 22 3f
       0.59995306 0.9807891 0.51727676 0.63571936
0000c0 9d 46 97 3e dc cf 28 3f f6 4c 4f 3f 32 bf 57 3f
       0.2954606 0.6594217 0.8097681 0.84276116
0000d0 96 f4 fb 3e 85 a9 1b 3f 6a 4a 1e 3f fa e3 ef 3e
       0.49210042 0.6080554 0.61832297 0.4685362
0000e0 d8 a1 0a 3f e3 18 17 3f 72 3d 44 3f ea 1d 93 3e
       0.54153204 0.5902235 0.7665626 0.2873376
0000f0 de f3 4f 3f 8b 34 03 3f 5b 8c 0c 3f 46 b3 ed 3e
       0.81231487 0.5125205 0.54901665 0.46425837

model.8.weight f4 [32, 64]
000000 91 76 89 3d 5f 32 9f 3c 52 9b 82 bd 0c e0 5a 3d
       0.06712068 0.019433198 -0.06377281 0.053436324
000010 05 43 4a 3d a1 52 11 3d 6d 64 b1 bd 30 cc a2 bd
       0.04938032 0.03547919 -0.08661733 -0.07949102
000020 50 85 8d bd ba 33 03 3d b8 54 ed 3d a5 8e 86 bd
       -0.06910193 0.032031752 0.115884244 -0.06570176
000030 59 7a 05 be 5a 9e ab bd 01 83 87 bd d7 0e 46 bd
       -0.13034953 -0.083798125 -0.06616784 -0.048353996
000040 6b e0 c9 3d 65 0b 84 bd 74 07 f4 3d f7 7b a8 3d
       0.098572575 -0.06447486 0.11915484 0.082267694
000050 78 9d 98 bc 09 d9 87 bd ec 0d 40 bc e9 57 d4 bd
       -0.018629774 -0.06633193 -0.011722069 -0.1036833
000060 9d d1 de bd e0 2c 97 3d 6c 9d 1b be c0 63 b2 3d
       -0.10879824 0.07381606 -0.1519677 0.08710432
000070 cd 66 d7 bd 2a 29 e8 bb fe cd 4a bd f5 40 93 bc
       -0.105176546 -0.0070849853 -0.049512856 -0.01797531
000080 e4 b2 c8 bd c9 86 24 3a fb 69 0b be 9f c5 ab 3c
       -0.09799746 0.0006276188 -0.13614647 0.020968257
000090 6d a9 6d 3d d5 6d 77 3d f5 b2 a5 bd f1 15 ae bd
       0.058022905 0.06040748 -0.08090774 -0.08500279
0000a0 a5 75 a1 3d 03 03 b3 3d ed 02 3b 3d 92 c9 fa bd
       0.07883767 0.08740809 0.045657087 -0.12245478
0000b0 c6 ca 76 3d a8 d0 1d 3d e3 3a f8 3c 6a ab 72 3d
       0.060251974 0.03852907 0.030301517 0.059245504
0000c0 38 2f f0 bd b9 f3 80 3d a5 22 5e ba 43 bd bb bd
       -0.11727756 0.062964864 -0.00084737904 -0.09166958
0000d0 19 81 10 3e 8d c2 cf bd 72 12 9a 3d ea 3f d5 3c
       0.14111747 -0.101445295 0.075230494 0.026031453
0000e0 cf 5b 1c bd 13 24 e0 3c 7a 97 0a 3d 5b 8b 27 3d
       -0.038173493 0.027360952 0.033835866 0.040904384
0000f0 2e 8f 19 3d 5f 29 58 3c c6 f5 07 3e 92 a0 37 bd
       0.037490062 0.013193457 0.13277349 -0.044830866
000100 9c 58 70 bd 0b 67 8d 3c 42 ea b3 3d 0a d0 59 bd
       -0.058678254 0.017261049 0.087849155 -0.053176917
000110 05 eb 12 bc 36 e1 d8 3c 20 07 d9 bd 67 ff b5 bd
       -0.008967166 0.026474576 -0.10597062 -0.08886605
000120 c9 15 c2 3c c1 79 f0 3c 2d 77 0b be aa e8 df 3d
       0.023692029 0.029354932 -0.1361968 0.10933049
000130 d7 68 3e 3d 66 1d d2 bd 09 eb 00 3e d3 ef aa bb
       0.0464867 -0.102595136 0.12589659 -0.0052165776
000140 e2 0b 97 bc 92 34 b3 3c 2b 16 b5 bd 9b 7e d2 bc
       -0.018438283 0.021875653 -0.08842119 -0.025695136
000150 40 f4 90 3d 8f 72 25 bd c2 b4 2b 3d 10 69 61 3d
       0.07077837 -0.040392455 0.04192043 0.055031836
000160 a7 4a 21 3e 77 52 02 be d9 ac 8c 3d 09 21 9e 3d
       0.15751134 -0.1272677 0.068689056 0.07721145
000170 4a 39 16 bd cc f9 a2 3d 3c 8c c6 3c f5 84 d1 3d
       -0.03667573 0.07957801 0.02423679 0.10230438
000180 e8 85 ab bd 51 aa ea 3c 62 6b 94 bd cb 34 0f 3d
       -0.0837515 0.028645666 -0.07247044 0.034962457
000190 50 0b 70 3d d8 aa ec bd a8 c9 be 3d 4f 07 3a 3d
       0.05860454 -0.11556023 0.093158066 0.045417126
0001a0 90 88 91 3a e9 f7 b6 3d cb 87 70 3b b4 66 8e bd
       0.0011103321 0.08934004 0.0036702033 -0.06953183
0001b0 88 18 b5 bd 97 fd 7d 3d 51 92 b1 bd c6 7e 6a bd
       -0.088425696 0.06200942 -0.08670486 -0.057249807
0001c0 e5 58 ef 3d 9a 13 a8 3d b1 71 00 3e 98 bf 8b 3d
       0.11686877 0.08206864 0.1254337 0.06823653
0001d0 be bf 06 bd 2b ac 8d 3c 4a 53 f1 bc 26 18 b0 3d
       -0.032897703 0.01729401 -0.02945866 0.08598356
0001e0 33 ce 6a bd 2c e5 5d bd 19 64 82 bd 7d 4b 8f bd
       -0.057325553 -0.054173633 -0.06366748 -0.0699682
0001f0 4f 57 1c bc 51 d1 9a bb 56 44 13 bd 80 ae 9d 3d
       -0.0095423 -0.0047246595 -0.035953842 0.07699299
000200 09 75 d4 3d 75 13 95 bc 47 6d 0a 3e 97 87 b9 3c
       0.10373885 -0.018197754 0.13518248 0.022647662
000210 03 68 9d bc af be b4 3d 4d 1e d9 bc ae 77 af 3d
       -0.019214636 0.088254325 -0.026503706 0.08567749
000220 4a 12 0a bd fe 4d 47 3d 45 30 00 3e 65 41 e5 3d
       -0.033708848 0.048658364 0.12518413 0.11194114
000230 69 dd 1a bb 1d ae 09 3c 51 d3 df bd 42 6b 84 3c
       -0.0023630506 0.008403328 -0.10928977 0.016164426
000240 c0 e7 87 3d ce 0d 05 3e 42 84 50 3d 41 bf 90 bd
       0.06636 0.12993547 0.05090738 -0.07067729
000250 95 62 44 3d 0f f6 5e bd 7d cd 46 3c c7 e7 2d bd
       0.047945578 -0.05443388 0.012133953 -0.04245737
000260 30 5d 72 bd 3b c3 e5 3c 9b 22 d3 3c c9 ae af bd
       -0.0591709 0.028047195 0.025773337 -0.085782595
000270 4e 3f bb bd 5b e2 98 bc 35 13 e5 3d 41 65 84 3d
       -0.09142934 -0.018662622 0.11185304 0.06464625
000280 ca fb 24 3d e4 78 02 be 28 ac 67 bd eb 9c 8b bd
       0.040279187 -0.12741429 -0.056560665 -0.06817039
000290 f0 06 58 3d bc 0f 4f 3d de 66 00 3e 3a 53 52 3d
       0.05274099 0.050552115 0.1253924 0.051348902
0002a0 dd a7 d8 3d 1e 97 98 bc 4e 07 2f 3c 0a a6 e4 bd
       0.105788924 -0.018626746 0.010682894 -0.11164482
0002b0 00 f1 9a bd 30 b7 16 be a1 05 92 3d 7b 25 41 3d
       -0.07565498 -0.14718318 0.0712998 0.047154885
0002c0 d0 ad 85 bd 25 5b f8 3d 13 41 00 be e3 b4 81 bc
       -0.06527293 0.121267594 -0.12524824 -0.015833324
0002d0 88 64 f5 bd 21 6f 09 3e 9e e3 b8 bd 50 e2 07 bd
       -0.119820654 0.13421299 -0.090277895 -0.033174813
0002e0 be 22 62 3c 0b 17 ac bc 18 6c df 3d af c9 dc 3d
       0.0138022285 -0.021007081 0.10909289 0.107806556
0002f0 23 9e a1 3d ee 49 5b 3b 4b ef 63 3d 9f a9 ed bd
       0.0789149 0.0033460814 0.05564813 -0.11604618
000300 48 e9 0f bd 9b d4 1e bd 31 c4 92 3d a6 46 8c bb
       -0.035134584 -0.038776975 0.07166327 -0.004280883
000310 0e a1 d4 bd 85 d5 de 3d e4 89 e3 bc 33 ea bb 3d
       -0.10382281 0.10880569 -0.027775712 0.09175529
000320 09 59 bb 3d 71 03 20 3c 3e 29 ce bd 69 bd de 3c
       0.091478415 0.0097664455 -0.1006646 0.027189927
000330 08 5c af bc 84 14 56 bd 82 81 b0 bd 0b 63 7e bd
       -0.021406189 -0.05226566 -0.08618452 -0.062106173
000340 d0 7a 58 3d 96 b4 96 3d 97 30 68 3d 72 2f 8a 3d
       0.052851498 0.07358663 0.056686964 0.06747331
000350 22 62 c6 bc f7 b4 46 bd a6 7a 0c 3e 7d 31 8d bd
       -0.024216715 -0.048512425 0.13718662 -0.06894205
000360 65 2f 07 be 8f ed fd 3d b5 b1 16 3d 07 1a a5 bc
       -0.13201673 0.12398826 0.03679057 -0.020154012
000370 ed af f9 3c 1a 4e 83 bd fd ff 85 bc 6e 93 2d 3d
       0.030479396 -0.06411381 -0.016357416 0.042376928
000380 d6 e4 7c bd 9a c6 52 3c 1e e6 7a bd 39 3c 07 be
       -0.061741672 0.012864733 -0.061254613 -0.13206567
000390 c8 6c 6a 3d cc a7 e6 bd ff 48 0c be 69 07 0a 3d
       0.057232648 -0.112624735 -0.13699721 0.033698473
0003a0 b8 00 78 3d 93 96 09 3d 70 bf a8 bd ac 81 b9 3d
       0.06054756 0.033590864 -0.08239639 0.09057936
0003b0 8a bf 2a bb dc b5 13 bd 7e b1 c8 3d e5 ee a8 3d
       -0.0026054108 -0.036062106 0.09799479 0.082486905
0003c0 47 aa 4a bd dc 8e c3 3d 71 3c 40 bd dd 30 9b bd
       -0.049478795 0.09548733 -0.04693264 -0.07577679
0003d0 23 9d cf 3d 56 0d ca 3c 17 5d f9 bc 7b 3c ee 3d
       0.10137393 0.024664562 -0.030439897 0.116326295
0003e0 97 d8 cb 3d 65 8a 12 3d ee 6a c4 3d 8e 34 ca bc
       0.099534206 0.035776515 0.09590708 -0.024683263
0003f0 49 2b 0c bd 26 63 ec 3d 0c 0b e6 3d 6e b8 ae 3d
       -0.034220967 0.115423486 0.11232576 0.08531271

model.8.bias f4 [32]
000000 2b 17 be bd ca 6b ed bd 6e 43 f4 bd 22 2a f7 3d
       -0.09281763 -0.11592825 -0.11926924 0.12068583
000010 1b aa 8c 3d 43 09 56 3d b0 60 a1 3d 8b f1 17 3d
       0.068683825 0.052254926 0.0787977 0.037095588
000020 e3 23 2f bd 9d b3 95 bc 26 ae 53 bd 6e e7 66 3d
       -0.042758834 -0.018274123 -0.051679753 0.056373052
000030 07 78 0e 3d b6 65 d7 bd ca 7c 90 3c 0c 4f c1 bd
       0.034782436 -0.10517447 0.017637629 -0.09438905
000040 12 8f ce 3d 43 d4 51 3c af 89 b9 b9 67 46 93 bd
       0.10085882 0.012806955 -0.00035388532 -0.071911626
000050 a4 94 d0 3c 58 ce b2 3c da c6 07 3d e8 8b c3 bd
       0.025461502 0.021826908 0.033148624 -0.095481694
000060 3e e1 54 bd 27 6d a6 bd b5 dd 98 bd b5 b1 88 bd
       -0.05197262 -0.08126288 -0.07464162 -0.0667452
000070 04 b8 d3 bd 75 77 fd 3d 21 c2 f3 bd 78 ec 04 bd
       -0.103378326 0.123763 -0.119022615 -0.032452077

model.9.weight f4 [32]
000000 bd cf 7a 3f c3 8c 79 3f d7 dd 80 3f cd a0 70 3f
       0.97973233 0.9748041 1.00677 0.9399536
000010 3b 6f 7b 3f ab 51 87 3f 93 a7 85 3f 25 e9 74 3f
       0.982166 1.0571798 1.0441765 0.9566825
000020 ec 04 84 3f 62 35 76 3f 8f 12 84 3f 95 c9 81 3f
       1.0314002 0.96175206 1.0318164 1.0139643
000030 20 5c 82 3f 3e ec 71 3f 93 af 6c 3f 4f 2f 83 3f
       1.0184364 0.945011 0.92455405 1.0248812
000040 0b 5d 80 3f ae 80 7f 3f fc 70 7d 3f 39 75 77 3f
       1.0028394 0.99805725 0.99000525 0.9666324
000050 eb a0 6d 3f 69 83 81 3f 8b 2a 82 3f a5 3a 84 3f
       0.92823666 1.0118228 1.0169233 1.0330397
000060 ea 0c 80 3f 35 fc 79 3f a4 e6 73 3f c3 a0 73 3f
       1.0003941 0.9765046 0.95273805 0.9516718
000070 95 51 7a 3f 29 71 82 3f 97 ce 7d 3f 92 a5 7c 3f
       0.97780734 1.0190784 0.99143356 0.9869014

model.9.bias f4 [32]
000000 24 75 0c 3d 9b 98 6c bc c8 5a 0d 3d 9a 8a b1 bc
       0.0342914 -0.014440681 0.034510404 -0.021672536
000010 cb ff a8 3c 69 d6 68 3d 53 8f 41 3d 52 62 f5 3b
       0.020629784 0.056845102 0.047255825 0.0074885273
000020 f0 a7 b2 3c a5 1d bc 3b a0 a8 4d 3c 1f 51 98 3c
       0.021808594 0.0057408386 0.01255241 0.018593369
000030 aa 6f 9f 3c 17 94 23 bd 67 13 43 bd 48 71 0f 3d
       0.019462425 -0.03993615 -0.047625925 0.035020143
000040 2c 4c 88 3c 01 d6 fe 3c fe 53 0c bb 51 d0 0d 3c
       0.016637884 0.031107904 -0.0021412368 0.0086556235
000050 c9 a7 23 bd da 3b 5d 3d 0a 73 4e 3d ab d4 43 3d
       -0.039954934 0.054012157 0.05040268 0.047810238
000060 4a ff a7 3c f7 21 45 bc 1e 5e 28 bd 83 45 61 bd
       0.020507473 -0.012032024 -0.041105382 -0.054997932
000070 55 98 9e bb 94 b8 9e 3c f0 fb 77 3d 4c 06 11 3d
       -0.0048399367 0.019375123 0.060543 0.035406396
