interface_prediction/checkpoints/project-epoch=08-val_loss=0.00.ckpt (torch, 259220 bytes, 62 tensors)

model.0.weight f4 [128, 59]
0	0x3debf516	0.11521356
1	0x3cf29625	0.02961261
2	0xbc3b36b2	-0.011426615
3	0x3da9c2ea	0.0828913
4	0xbd2b26f9	-0.041785214
5	0x3d14f901	0.03637028
6	0xbd5e9a68	-0.054346472
7	0xbbb5c835	-0.005547548
8	0x3de2873c	0.1106095
9	0xbda0558e	-0.07828818
10	0x3e09e3a9	0.13465752
11	0x3db2b7e7	0.08726483
12	0x3dac62f0	0.08417308
13	0x3c6c2096	0.014412066
14	0x3d96c67a	0.07362075
15	0xbc3581a7	-0.011078275
16	0x3da2ddf2	0.07952489
17	0x3d2a9509	0.041646037
18	0xbda5b618	-0.08091372
19	0x3d635068	0.055496603
20	0xbdb507f6	-0.08839409
21	0xbce3fbaf	-0.027829973
22	0xbd091650	-0.033468544
23	0x3d9538cb	0.07286223
24	0xbda00142	-0.0781274
25	0xbd32bfc8	-0.043639928
26	0xbdd29764	-0.10282782
27	0xbd710392	-0.058841296
28	0xbcad5d2d	-0.021162594
29	0xbe0f47a0	-0.13992167
30	0x3df28910	0.11842549
31	0xbdcef691	-0.101056226
32	0x3cf39c7b	0.029737702
33	0x3ca2aa6e	0.019856658
34	0xbd0e08b0	-0.034676254
35	0x3dd15e08	0.10223013
36	0x3da66c4c	0.08126125
37	0x3dc10490	0.09424698
38	0x3b81ec8f	0.0039649676
39	0xbd45ad38	-0.048260897
40	0x3d652be9	0.05595008
41	0xbd5ad54f	-0.053426083
42	0x3da46c7d	0.08028505
43	0x3dcb7ad1	0.09935535
44	0x3dba1aee	0.09087168
45	0xbd79ee0d	-0.06101804
46	0x3dc90e47	0.09817176
47	0x3c56f537	0.013119987
48	0x3dc1cb39	0.0946259
49	0xbda340de	-0.07971357
50	0xbe1f67a4	-0.1556688
51	0xbd9f286a	-0.0777138
52	0xbda724d1	-0.08161319
53	0x3e1f3e44	0.15551096
54	0x3d2565d9	0.040380333
55	0x3d9647d0	0.07337916
56	0x3d1d1f2e	0.038359813
57	0x3c370485	0.011170511
58	0x3dcfa400	0.101387024
59	0xbdfcf730	-0.12351835
60	0xbbc25c07	-0.0059313807
61	0xbdf04688	-0.11732203
62	0x3d4d53c7	0.050128724
63	0xbb923d8a	-0.0044629024
64	0x3d75aa35	0.059976775
65	0xbd820959	-0.06349439
66	0x3dca4758	0.09876889
67	0xbd4b9921	-0.049706582
68	0xbd766adb	-0.0601605
69	0xbdd25c07	-0.10271459
70	0x3de682c1	0.11255408
71	0x3d9b75ce	0.07590829
72	0x3e04fb9c	0.12986606
73	0xbdd954c4	-0.10611871
74	0xbe0147e2	-0.12625077
75	0xbdbfdfd2	-0.09368862
76	0xbdac77aa	-0.084212616
77	0x3d70c40b	0.05878071
78	0x3d4865a5	0.04892506
79	0x3dbe51bf	0.092929356
80	0xbda95a6b	-0.08269199
81	0xbdd2f04a	-0.10299738
82	0x3d872416	0.0659868
83	0xbd6802c4	-0.056643263
84	0x3d43e046	0.047821306
85	0xbd05ca95	-0.0326639
86	0x3d3bd630	0.045858562
87	0xbda65313	-0.08121314
88	0xbce22e32	-0.027609918
89	0x3d61134e	0.05495005
90	0xbbfaba17	-0.007651578
91	0xbcf75079	-0.03018974
92	0x3dc7f75b	0.09763976
93	0x3dc56624	0.096386224
94	0xbdf44309	-0.119268484
95	0xbda1b82f	-0.07896458
96	0x3e1a5472	0.15071276
97	0xbd1a5f22	-0.037688382
98	0xbd47ba9c	-0.04876195
99	0xbe100098	-0.14062726
100	0xbd808e63	-0.06277158
101	0x3d276b22	0.040873654
102	0xbcd720e5	-0.026260803
103	0xbde782e4	-0.11304262
104	0x3b6e6a51	0.0036379287
105	0xbdd07691	-0.10178865
106	0xbdcabfe0	-0.098998785
107	0xbd7a9416	-0.061176382
108	0xbdf5e55e	-0.12006639
109	0xbd95758a	-0.072978094
110	0x3e0ee083	0.13952832
111	0x3cec7620	0.02886492
112	0x3d80ba94	0.06285587
113	0xbde09cfd	-0.10967443
114	0xbd8b3ffe	-0.06799315
115	0xbd121445	-0.03566386
116	0x3cc26902	0.023731712
117	0xbde8e70b	-0.11372193
118	0xbd630f18	-0.055434316
119	0xbd8c18e9	-0.06840689
120	0x3941e870	0.00018492504
121	0xbd077efa	-0.03308008
122	0xbbab4400	-0.005226612
123	0xbdbb6eaf	-0.091519706
124	0xbd9e8c1e	-0.07741569
125	0xbd5b1821	-0.053489808
126	0xbce0ddf0	-0.027449578
127	0xbdbe2dba	-0.092860654
128	0x3dcebfd4	0.10095182
129	0xbd8f88f2	-0.07008542
130	0x3de83b84	0.11339477
131	0x3cf55ad1	0.029950531
132	0xbdc89639	-0.09794278
133	0x3ddbac2a	0.10726197
134	0xbd2537e3	-0.0403365
135	0xbd2bec11	-0.041973177
136	0xbdf49ac5	-0.119435824
137	0xbdfda22b	-0.12384447
138	0x3dbd5b0f	0.09245884
139	0xbc58026b	-0.01318417
140	0x3d844d56	0.06460063
141	0xbdf8a85f	-0.12141489
142	0x3dc830b0	0.097749114
143	0xbdc1842a	-0.094490364
144	0xbc43d756	-0.011953196
145	0x3cdc6176	0.026901942
146	0x3da06037	0.078308515
147	0x3de10be0	0.10988593
148	0x3de8dd54	0.1137034
149	0xbdb878e3	-0.09007432
150	0x3d62e830	0.055397213
151	0xbd14afe0	-0.03630054
152	0xbc00e76d	-0.007867676
153	0xbdd8d396	-0.10587232
154	0x3d98dc79	0.07463927
155	0xbdbeccd6	-0.09316413
156	0x3d5e8598	0.054326624
157	0x3d01b61c	0.031667814
158	0x3cf80e0f	0.030280141
159	0xbdb701a4	-0.0893586
160	0x3defb3d5	0.11704222
161	0x3d047252	0.032335587
162	0x3c8d87f4	0.017276742
163	0xbe0da22f	-0.138314
164	0x3d0c0483	0.03418399
165	0xbd24197a	-0.04006336
166	0xbd8194e6	-0.06327228
167	0x3e197156	0.1498464
168	0x3d8221ce	0.06354104
169	0xbda0bc4c	-0.07848415
170	0xbd7b6e02	-0.06138421
171	0xbd0c65f9	-0.034276936
172	0x3d9f37da	0.07774325
173	0xbcbffbdd	-0.023435527
174	0xbd961252	-0.07327713
175	0xbcd460a3	-0.025924986
176	0xbdf63080	-0.120209694
177	0x3d829bd1	0.06377376
178	0x3de0dff2	0.10980214
179	0xbdda87f5	-0.10670463
180	0x3caca962	0.021076862
181	0x3d837fd4	0.06420866
182	0x3d469e1c	0.04849063
183	0xbccc06e1	-0.024905624
184	0x3da19767	0.07890206
185	0x3dd4b097	0.10385244
186	0x3d8858c3	0.06657555
187	0xbc0e31d3	-0.008678871
188	0xbd40e785	-0.047095794
189	0xba233f51	-0.00062273914
190	0xbc3ab915	-0.011396666
191	0xbd404965	-0.046944994
192	0x3da4bbdd	0.080436446
193	0x3e073e0d	0.13207264
194	0x3d01652f	0.031590637
195	0xbc17ee4d	-0.009273124
196	0x3d3b239b	0.045688253
197	0x3c68d0e4	0.01420996
198	0x3d883e13	0.06652465
199	0x3d93a028	0.07208282
200	0xbdbc110e	-0.091829404
201	0xbc0e931f	-0.008702069
202	0x3e0163ee	0.12635776
203	0x3d4c982d	0.049949814
204	0x3c0d310d	0.008617652
205	0xbdcb699d	-0.099322535
206	0xbda9e5b7	-0.08295768
207	0xbdd5d33a	-0.10440679
208	0xbcb5a2c8	-0.022172347
209	0x3d38c83e	0.04511284
210	0x3df11e6b	0.1177338
211	0x3d91b5cd	0.07114754
212	0xbdcd868c	-0.100354284
213	0xbdaad8f0	-0.08342159
214	0xbd1448a0	-0.036202073
215	0x3e016bde	0.12638804
216	0x3cb0aac7	0.021565808
217	0xbc1de5ef	-0.00963734
218	0x3d754238	0.059877604
219	0xbca3958a	-0.019968767
220	0xbd9532e7	-0.072850995
221	0x3e012555	0.12611897
222	0xbd6ff916	-0.058587156
223	0xbb8e3a15	-0.00434042
224	0xbe07a5f0	-0.13246894
225	0x3dd5c486	0.104378745
226	0x3dcda752	0.100416794
227	0x3cf88ab4	0.030339576
228	0xbd8f1d73	-0.06988039
229	0xbda9ea2e	-0.08296619
230	0xbe000819	-0.12503089
231	0x3da8c9f8	0.082416475
232	0x3d183416	0.037159048
233	0x3dd0e493	0.10199847
234	0x3d65ebc8	0.05613306
235	0x3d163441	0.036670927
236	0x3bc6ba8d	0.006064719
237	0xbdfa1a11	-0.12212003
238	0xbdcf14c4	-0.101113826
239	0xbde60361	-0.11231113
240	0x3d370bd1	0.044689003
241	0xbd2f47bf	-0.04279303
242	0xbcf76326	-0.030198645
243	0xbdeacdaf	-0.11465012
244	0xbb595c92	-0.0033166748
245	0xbd3a5863	-0.04549445
246	0xbd8e9be8	-0.069633305
247	0x3dc97b38	0.09837955
248	0xbd5f8738	-0.054572314
249	0x3d71a81d	0.058998216
250	0xbd5e0727	-0.05420604
251	0xbdda2e42	-0.10653354
252	0xbd232eef	-0.03983968
253	0xbd88d811	-0.066818364
254	0xbd602311	-0.054720942
255	0xbe01e063	-0.12683253

model.0.bias f4 [128]
0	0xbdaf214e	-0.08551274
1	0xbb100c20	-0.0021979883
2	0xbdeb02c6	-0.11475138
3	0x3de34a8c	0.11098203
4	0xbd9587ed	-0.073013164
5	0xbdca6702	-0.098829284
6	0x3dfd599e	0.12370609
7	0xbd9d6b2d	-0.07686458
8	0xbd6fb691	-0.05852372
9	0xba32e4b2	-0.00068242394
10	0x3d2a0c77	0.041515794
11	0xbd4198fd	-0.04726504
12	0x3d8f773e	0.070051655
13	0xbda9202d	-0.0825809
14	0x3cbe9c2c	0.023267828
15	0xbe03475d	-0.12820192
16	0xbdf10985	-0.11769394
17	0x3d324c17	0.043529596
18	0x3d7ea466	0.0621685
19	0xbd70b66a	-0.058767714
20	0x3d34547a	0.044025876
21	0xbd0ae70f	-0.03391176
22	0x3d96deef	0.0736674
23	0x3c4b7857	0.012418828
24	0xbce84e64	-0.028357692
25	0x3cd36382	0.025804285
26	0xbdf7663c	-0.120800465
27	0x3d8b612a	0.06805642
28	0x3df5dc71	0.120049365
29	0x3de4b993	0.11168208
30	0xbd9f4e2d	-0.07778583
31	0xbd52a7b0	-0.05142945
32	0xbd6a780e	-0.0572434
33	0x3cad88b8	0.021183357
34	0xbdb7547b	-0.0895166
35	0xbdc37252	-0.09543289
36	0xbd4efe5a	-0.050535537
37	0x3de2e161	0.11078144
38	0x3d0bc884	0.034126773
39	0xbdec7cdf	-0.11547255
40	0xbd75ee8a	-0.06004194
41	0xbdc9529c	-0.098302096
42	0xbc7d9ea2	-0.015479716
43	0x3ba19c61	0.004931972
44	0xbdb0faa3	-0.08641555
45	0xbdd1a448	-0.10236412
46	0xbcd95d45	-0.026533732
47	0x3bb5ab82	0.005544127
48	0x3dc32e50	0.09530318
49	0x3d452444	0.04813029
50	0xbd9bfc9f	-0.07616543
51	0xbdf83823	-0.12120082
52	0x3cce9165	0.025215814
53	0xbc8863aa	-0.016649086
54	0x3d976194	0.073916584
55	0xbdbcb9ac	-0.092151016
56	0xbc09299d	-0.008371738
57	0xbdc03412	-0.093849316
58	0xbd7ecd76	-0.06220766
59	0xbd9ea5ef	-0.07746493
60	0xbcdd1cbb	-0.026991239
61	0xbbfe624d	-0.007763183
62	0x3df3b6c9	0.11900098
63	0x3ded28dd	0.1158006
64	0x3dd1316e	0.10214506
65	0x3d0738b3	0.033013057
66	0x3ab53cf1	0.0013827366
67	0x3dfc1b69	0.123099156
68	0xbdbb22da	-0.09137507
69	0xbdef0afb	-0.11672016
70	0xbd918228	-0.071049035
71	0x3dcbc726	0.09950094
72	0x3e01969a	0.12655106
73	0xbd7002a7	-0.05859628
74	0xbdace60b	-0.08442315
75	0xbdea6f3f	-0.11447
76	0x3d7ae221	0.06125081
77	0xbd505b2e	-0.050868206
78	0x3dbce525	0.09223393
79	0xbd3ec293	-0.04657228
80	0x3df32eb1	0.1187414
81	0x3dad0c02	0.08449556
82	0x3dae7820	0.08519006
83	0x3d8a54c3	0.06754448
84	0xbdd8e6df	-0.1059091
85	0x3c8d9513	0.017282998
86	0xbda06a23	-0.07832744
87	0xbd1d6215	-0.038423616
88	0x3da41707	0.080122046
89	0xbd876024	-0.06610134
90	0x3dae90cf	0.08523714
91	0x3bd6cd5c	0.0065552425
92	0xbd776f28	-0.06040874
93	0xbd819b49	-0.063284464
94	0xbe02c032	-0.12768629
95	0x3d32e1cb	0.043672364
96	0x3b9ff621	0.004881636
97	0x3de95f99	0.11395187
98	0x3d3f1ff3	0.04666133
99	0x3d1ffecf	0.039061364
100	0xbc00f24c	-0.007870268
101	0x3d790668	0.060797125
102	0xbcaeac6a	-0.021322448
103	0x3d42d682	0.04756785
104	0xbd739f3e	-0.059478037
105	0x3da7691f	0.08174347
106	0x3d185b5e	0.03719651
107	0x3d87dda8	0.066340744
108	0x3c18c2d5	0.009323795
109	0x3d81ebdf	0.06343817
110	0x3dfb3714	0.12266365
111	0x3ca23670	0.019801348
112	0x3db65069	0.08902056
113	0xbdf0b12d	-0.117525436
114	0xbc2ffb3a	-0.010741049
115	0xbde7deae	-0.1132177
116	0x3c31aec0	0.010844886
117	0x3ce01275	0.027352551
118	0x3d1a2417	0.037632074
119	0xbd5a9e38	-0.053373545
120	0x3d70cd54	0.058789566
121	0xbd615851	-0.055015866
122	0xbd0edbfc	-0.034877762
123	0x3dca9cb4	0.0989317
124	0xbdf7b833	-0.1209568
125	0x3cd2b963	0.025723165
126	0xbdde6858	-0.10859746
127	0x3d70a177	0.058747735

model.1.weight f4 [128]
0	0x3f7edab4	0.99552464
1	0x3f7d3d70	0.9892187
2	0x3f811eb3	1.0087494
3	0x3f795c7d	0.9740675
4	0x3f81598f	1.0105456
5	0x3f7e6bb7	0.9938311
6	0x3f815c60	1.0106316
7	0x3f84ec9e	1.038471
8	0x3f866bc9	1.0501643
9	0x3f82ce75	1.0219256
10	0x3f7f13ec	0.99639773
11	0x3f806537	1.0030888
12	0x3f82f324	1.0230451
13	0x3f799058	0.97485876
14	0x3f7966c4	0.9742243
15	0x3f80a5bb	1.0050577
16	0x3f7fe5b6	0.99959886
17	0x3f7eaafc	0.9947965
18	0x3f79553e	0.97395694
19	0x3f7fe54f	0.9995927
20	0x3f7805e8	0.9688401
21	0x3f7d736b	0.9900424
22	0x3f8327e3	1.0246547
23	0x3f7b56f0	0.9817953
24	0x3f7968a9	0.97425324
25	0x3f7e0caf	0.99238104
26	0x3f7eefab	0.99584454
27	0x3f82b846	1.0212486
28	0x3f7fa47a	0.99860346
29	0x3f81b214	1.013247
30	0x3f7a97f0	0.9788809
31	0x3f7bad02	0.98310864
32	0x3f803abe	1.0017927
33	0x3f7d9d5d	0.9906824
34	0x3f84eb74	1.0384355
35	0x3f8110b3	1.0083221
36	0x3f7dba13	0.9911205
37	0x3f85a8f3	1.0442184
38	0x3f7adf4d	0.9799698
39	0x3f7dcfa2	0.9914495
40	0x3f7a8905	0.97865325
41	0x3f81feff	1.0155944
42	0x3f77f723	0.96861476
43	0x3f801888	1.0007486
44	0x3f7741b9	0.9658466
45	0x3f8a91a3	1.0825695
46	0x3f761bc5	0.9613612
47	0x3f7e12d3	0.99247473
48	0x3f7aeedc	0.9802072
49	0x3f7c2de6	0.98507535
50	0x3f7dd665	0.99155265
51	0x3f7fc451	0.9990893
52	0x3f7fa197	0.9985594
53	0x3f79ed38	0.9762759
54	0x3f7373ee	0.9509877
55	0x3f7ba33d	0.98295957
56	0x3f7b0d81	0.9806748
57	0x3f889ad6	1.0672252
58	0x3f8020f2	1.0010054
59	0x3f779621	0.96713454
60	0x3f767008	0.96264696
61	0x3f8215ed	1.0162941
62	0x3f7b82b9	0.9824634
63	0x3f7d6ff1	0.98998934
64	0x3f78e1f5	0.97219783
65	0x3f794d46	0.97383535
66	0x3f802dc9	1.0013973
67	0x3f7925f3	0.9732353
68	0x3f8594b9	1.0436012
69	0x3f7ee114	0.9956219
70	0x3f74e3cf	0.9566011
71	0x3f802898	1.0012388
72	0x3f7d5305	0.989548
73	0x3f7bea32	0.9840423
74	0x3f76b5c5	0.9637111
75	0x3f753d1e	0.9579638
76	0x3f78651e	0.9702929
77	0x3f836847	1.0266198
78	0x3f84cc59	1.0374862
79	0x3f7cc1be	0.9873313
80	0x3f7eeaf8	0.99577284
81	0x3f7b45f9	0.98153645
82	0x3f7b4bab	0.98162335
83	0x3f7eb269	0.9949098
84	0x3f789323	0.9709951
85	0x3f7f6ba0	0.997736
86	0x3f8144a7	1.0099076
87	0x3f85be20	1.0448647
88	0x3f72eb87	0.94890636
89	0x3f7c2c0b	0.98504704
90	0x3f76ede3	0.96456736
91	0x3f7e8603	0.99423236
92	0x3f8304be	1.0235822
93	0x3f819e2d	1.0126396
94	0x3f81783a	1.0114815
95	0x3f7d854e	0.9903153
96	0x3f796195	0.97414523
97	0x3f783bc4	0.96966195
98	0x3f7c386c	0.9852359
99	0x3f801e90	1.0009327
100	0x3f8097d6	1.0046337
101	0x3f793e78	0.97360945
102	0x3f77058a	0.96492827
103	0x3f842b9e	1.0325811
104	0x3f804294	1.0020318
105	0x3f85c642	1.0451128
106	0x3f7fd207	0.9992985
107	0x3f81ffb0	1.0156155
108	0x3f820671	1.0158216
109	0x3f7d4c7f	0.9894485
110	0x3f82ea83	1.0227817
111	0x3f7debdd	0.99188024
112	0x3f7e0ded	0.9924
113	0x3f7d8b3c	0.9904058
114	0x3f79f37c	0.9763715
115	0x3f7dbb6d	0.99114114
116	0x3f8055e8	1.0026217
117	0x3f812215	1.0088526
118	0x3f7c9a72	0.98673165
119	0x3f77a68f	0.96738523
120	0x3f7eab22	0.9947988
121	0x3f7dcb93	0.99138755
122	0x3f7f05d4	0.9961827
123	0x3f80f0d2	1.0073493
124	0x3f75b09c	0.9597261
125	0x3f762024	0.9614279
126	0x3f7d957f	0.9905624
127	0x3f7db4f5	0.99104244

model.1.bias f4 [128]
0	0x3ccf8c31	0.025335403
1	0xbc457868	-0.012052633
2	0x3bd934b9	0.0066285995
3	0xbd2b7cba	-0.041866995
4	0xbc431b71	-0.011908398
5	0xbcbd72fa	-0.023126114
6	0xbcd5ea38	-0.02611266
7	0x3c5fb4ec	0.013653975
8	0x3d4d8293	0.050173353
9	0x3d24bdaf	0.04021996
10	0xbc2d9c3b	-0.01059633
11	0x3c24d412	0.010060327
12	0x3cb5e198	0.022202298
13	0xbd048a6f	-0.032358583
14	0xbc05cec6	-0.008166974
15	0xbc7b1e6d	-0.015327078
16	0xbc20cbf2	-0.009814249
17	0xbd438688	-0.04773572
18	0xbc6a0702	-0.014283897
19	0xbb5c6d5a	-0.0033634515
20	0xbd605ec6	-0.054777883
21	0xbabcd025	-0.0014405294
22	0x3b126272	0.002233651
23	0xbcce52af	-0.025185911
24	0xbb6d1799	-0.0036177395
25	0x3a9b97ca	0.0011870798
26	0x3c1ed60a	0.009694586
27	0xbcdcf550	-0.026972443
28	0x3ba4f100	0.0050336123
29	0xbc5b7401	-0.013394357
30	0x3c59c8cf	0.013292505
31	0xbc8420c0	-0.016128898
32	0xbc851648	-0.016245976
33	0x3c36b7dd	0.011152235
34	0xbc448c4a	-0.011996338
35	0x3d0f720e	0.03502088
36	0xbbcb18c7	-0.006198022
37	0x3c6eb735	0.014570047
38	0xbabb2c65	-0.0014280198
39	0x3c7076bd	0.014676747
40	0x3bd2ca4e	0.006432808
41	0xbc8301d9	-0.015992092
42	0xbd06ca4f	-0.03290778
43	0xbb2d8189	-0.0026474914
44	0xbcc00ad3	-0.023442661
45	0x3d76b99f	0.060235616
46	0xbd072c9c	-0.033001527
47	0xbc5145d1	-0.012772993
48	0xbce1cb4d	-0.027562762
49	0x3bdb89e5	0.006699788
50	0xbbc88260	-0.0061190575
51	0x39e9444a	0.00044492102
52	0xbc256dc6	-0.010096973
53	0xbcffa83d	-0.031208152
54	0xbd3a73c5	-0.045520563
55	0x3bacf075	0.005277688
56	0x3c129e47	0.008948869
57	0x3c51e51a	0.01281097
58	0xbc84fa77	-0.016232712
59	0xbcfb9f06	-0.030715477
60	0xba660bc0	-0.00087755546
61	0x3d48b0b8	0.048996657
62	0xbd400178	-0.0468764
63	0xbc34b45e	-0.011029331
64	0xbbc6bcb0	-0.006064974
65	0xbccc1e07	-0.024916662
66	0x3c20e312	0.009819763
67	0xbcbc0fb8	-0.022956714
68	0x3d452b4a	0.048136987
69	0xbc704f42	-0.014667334
70	0xbcf5497e	-0.02994227
71	0xbb946e6f	-0.0045297663
72	0xbcc28425	-0.023744652
73	0x3c624d73	0.013812411
74	0xbcd3d6d0	-0.025859267
75	0xbd22c8e5	-0.03974237
76	0xbd0a77a3	-0.0338055
77	0x3b9ac9d3	0.0047237664
78	0x3c383727	0.011243618
79	0xbc2fbd62	-0.010726305
80	0x3c8d2c85	0.017233143
81	0xbb201908	-0.0024428982
82	0x3a309061	0.00067353813
83	0xbc14a2a2	-0.009071978
84	0xbc213381	-0.00983894
85	0xbc8e6d9d	-0.017386252
86	0x3a0e0653	0.00054178125
87	0x3b8266da	0.003979546
88	0xbd464e38	-0.04841444
89	0xbc629273	-0.0138288615
90	0xbd3be197	-0.045869436
91	0xbcbadacc	-0.022809409
92	0x3b00e3ed	0.0019667104
93	0x3c9aadad	0.018881643
94	0x3c246c86	0.01003564
95	0xbc7e0865	-0.015504931
96	0xbcd25273	-0.02567408
97	0xbcc515db	-0.024058273
98	0x3c73d777	0.014882914
99	0x3d0f7423	0.035022866
100	0x3b284762	0.0025677313
101	0xbc8b6c46	-0.017019402
102	0xbd129323	-0.03578485
103	0x3d205c24	0.039150372
104	0x3bca9c10	0.006183155
105	0x3d0bfc71	0.034176294
106	0xbc6dd878	-0.014516942
107	0x3cfb6106	0.030685913
108	0x3c3db662	0.011579128
109	0x39c2a1df	0.00037123167
110	0x3c8b2ed8	0.01699011
111	0xbbd93964	-0.006629156
112	0x3b1f0652	0.0024265242
113	0x3beb9a96	0.007190059
114	0x3c041450	0.0080614835
115	0xbc94172e	-0.01807746
116	0xbcd81dbc	-0.026381366
117	0x3c050ec0	0.008121192
118	0xbceb7db8	-0.02874647
119	0xbcb0b3f1	-0.021570178
120	0xbcf12d6b	-0.029440602
121	0xbc39b54f	-0.011334731
122	0x3cd71e55	0.02625958
123	0xbc3fb89f	-0.011701732
124	0xbcc65b0d	-0.024213338
125	0xbcf05be5	-0.029340694
126	0x3aaf9cb6	0.0013398144
127	0xbcc8fa99	-0.024533557

model.1.running_mean f4 [128]
0	0xbdbd613b	-0.09247061
1	0x3ce83c01	0.028348925
2	0xbd9b1d35	-0.0757393
3	0x3defffd8	0.1171872
4	0xbd4cb310	-0.049975455
5	0xbddde784	-0.10835174
6	0x3e004e30	0.12529826
7	0xbdd5057a	-0.10401435
8	0xbd6bd2e0	-0.057574153
9	0xbcb9a3d1	-0.022661122
10	0x3d8a8afe	0.06764792
11	0xbdc2f071	-0.09518517
12	0x3d22e12a	0.039765514
13	0xbdc00701	-0.09376336
14	0x3d043ecd	0.032286454
15	0xbdf04eac	-0.117337555
16	0xbdeb1b87	-0.1147986
17	0x3d5bdf84	0.053679958
18	0x3d24580e	0.040123038
19	0xbdce0270	-0.10059059
20	0x3d53c2ea	0.051699556
21	0xbd902af2	-0.07039441
22	0x3dd1917c	0.10232827
23	0x3d0793a8	0.0330998
24	0xbc516507	-0.012780434
25	0xbbe17a0c	-0.006881004
26	0xbdcd5137	-0.10025256
27	0x3d9e9c1e	0.07744621
28	0x3e0a8dc1	0.13530637
29	0x3d7d14be	0.06178736
30	0xbd67e459	-0.056614254
31	0xbd8e4cbf	-0.06948232
32	0xbdb37506	-0.08762555
33	0x3d32612c	0.0435497
34	0xbda327fb	-0.0796661
35	0xbddb6594	-0.10712734
36	0xbd310dc5	-0.043226022
37	0x3e0270a5	0.12738283
38	0x3d32b1ef	0.043626722
39	0xbdb86ea2	-0.090054765
40	0xbd58d31f	-0.052935716
41	0xbdee9c8f	-0.11650955
42	0xbcf81346	-0.030282628
43	0x3c974397	0.018464847
44	0xbdb9d5e1	-0.09073997
45	0xbdc3f625	-0.09568433
46	0xbd84d82d	-0.06486545
47	0x3c8ba034	0.017044164
48	0x3db9690b	0.090532385
49	0x3d61dde4	0.055143252
50	0xbdaa5d26	-0.08318548
51	0xbde17118	-0.11007899
52	0x3d2c6baa	0.042094864
53	0xbcb74236	-0.022370439
54	0x3d410722	0.047125943
55	0xbda5fe3d	-0.08105133
56	0x3c721da8	0.014777578
57	0xbdb458be	-0.08805989
58	0xbd92c141	-0.071657665
59	0xbd8e9545	-0.06962065
60	0xbd2e13d5	-0.042499382
61	0xbca86e5b	-0.020560434
62	0x3df8072e	0.121107444
63	0x3ddc1506	0.107461974
64	0x3dfa5f54	0.12225214
65	0xbaa9711f	-0.001292739
66	0xbc8c2a1d	-0.017109925
67	0x3df18944	0.117937595
68	0xbde85e92	-0.11346163
69	0xbdc1cc73	-0.09462824
70	0xbd316dcc	-0.0433176
71	0x3df3e802	0.11909486
72	0x3d98f0f8	0.07467836
73	0xbd71c49f	-0.059025403
74	0xbd8ecc02	-0.06972505
75	0xbda87003	-0.082244895
76	0x3da08ce9	0.078393765
77	0xbde61738	-0.112348974
78	0x3dd72de4	0.105068
79	0xbd972fac	-0.073821396
80	0x3e28f469	0.16499485
81	0x3d9d30a7	0.07675295
82	0x3de1de1a	0.11028691
83	0x3db446c1	0.08802558
84	0xbdc5d69a	-0.096600726
85	0x3d1bc2c7	0.03802755
86	0xbda58a43	-0.08083012
87	0xbd535f79	-0.05160472
88	0x3dab2776	0.08357136
89	0xbd917e38	-0.071041524
90	0x3dbec1b8	0.09314293
91	0x3b0807c7	0.0020756589
92	0xbd7fb1d4	-0.06242545
93	0xbda3ce16	-0.07998292
94	0xbe21aa78	-0.15787685
95	0x3cb2eabf	0.021840451
96	0x3d1b8e13	0.03797729
97	0x3df9d9f5	0.12199775
98	0x3d4bfcf1	0.04980177
99	0x3d17e42a	0.03708283
100	0x3ca5e634	0.020251371
101	0x3d86d7e8	0.065841496
102	0xbcaa1813	-0.020763433
103	0x3d796484	0.060886875
104	0xbcfccd0c	-0.030859493
105	0x3da7ef37	0.081999235
106	0x3d07c448	0.033146173
107	0x3d32fe31	0.043699447
108	0x3d3a6385	0.045505065
109	0x3d8b4af5	0.06801406
110	0x3dd1a448	0.10236412
111	0x3a2b91bc	0.00065448484
112	0x3d969981	0.07353497
113	0xbe02b2e9	-0.12763561
114	0x3cb9c6e5	0.022677848
115	0xbdd73a42	-0.10509159
116	0x3cbf50a3	0.02335388
117	0x3cbb4cce	0.022863772
118	0x3d75f686	0.060049556
119	0xbd100a63	-0.035166156
120	0x3d533b5d	0.051570285
121	0xbd36656f	-0.04453033
122	0xbd1066f1	-0.035254423
123	0x3d821df6	0.06353371
124	0xbdd3ef50	-0.103483796
125	0x3d3657af	0.044517215
126	0xbdc5983e	-0.096481785
127	0x3d4b6892	0.049660273

model.1.running_var f4 [128]
0	0x3ea421ad	0.32056943
1	0x3f85af53	1.044413
2	0x3f21b1d4	0.6316197
3	0x3e94804b	0.2900413
4	0x3ed952c3	0.42445955
5	0x3f093d84	0.5360949
6	0x3e90eb03	0.283043
7	0x3ed82ca7	0.42221567
8	0x3e76128e	0.24030516
9	0x3edc8cb4	0.43076098
10	0x3f11996a	0.56874716
11	0x3fa726ad	1.3058678
12	0x3ec1252e	0.37723678
13	0x3f019592	0.5061885
14	0x3e86bc2c	0.2631544
15	0x3efa65af	0.48905703
16	0x3e8950e0	0.26819515
17	0x3e8af241	0.2713795
18	0x3f2367f8	0.6383052
19	0x3f4d8bdc	0.80291533
20	0x3e0a52ae	0.13508102
21	0x3f369b0f	0.7133035
22	0x3e63c581	0.2224331
23	0x3ebe9c1d	0.3722848
24	0x3f050453	0.51959723
25	0x3f2f45e0	0.68465996
26	0x3eafcbd7	0.34335205
27	0x3e32734f	0.17426799
28	0x3ebe07ca	0.37115318
29	0x3f50a5e5	0.81503135
30	0x3e85bde2	0.26121432
31	0x3f02f645	0.5115703
32	0x3f24d467	0.643866
33	0x3ea254ff	0.31705472
34	0x3eddc133	0.43311462
35	0x3e8eab29	0.2786496
36	0x3e2bb8b0	0.16769671
37	0x3df28fdf	0.118438475
38	0x3ee7fd81	0.45310596
39	0x3ef2809b	0.47363743
40	0x3e2af2b5	0.16694148
41	0x3e5946db	0.21218435
42	0x3f1425ca	0.5787016
43	0x3ec3021f	0.38087556
44	0x3ec9c80a	0.3941043
45	0x3edf0f82	0.4356652
46	0x3f1eac66	0.6198181
47	0x3e9cbbac	0.30611932
48	0x3ec05274	0.37562907
49	0x3f30bc64	0.6903746
50	0x3ef3aa94	0.47591078
51	0x3f86b0dc	1.0522723
52	0x3e5f6efc	0.21819681
53	0x3f3c2d84	0.7350695
54	0x3ea47607	0.32121298
55	0x3eb3388a	0.35004073
56	0x3e4fba55	0.20285924
57	0x3da85cbb	0.08220812
58	0x3e6838bb	0.22677891
59	0x3f1a9ced	0.603957
60	0x3e822652	0.2541986
61	0x3ea9b474	0.33145487
62	0x3e8b95b9	0.27262667
63	0x3ecaadc9	0.39585713
64	0x3f6178cc	0.88074946
65	0x3ed2ca4b	0.41169962
66	0x3eeff1a4	0.46864045
67	0x3f3b4821	0.73156935
68	0x3e850a78	0.2598455
69	0x3e9b505a	0.3033474
70	0x3f0420fc	0.5161283
71	0x3f05c8cb	0.5225951
72	0x3fa862bf	1.3155135
73	0x3d90e675	0.07075206
74	0x3f51b044	0.81909585
75	0x3eb47b71	0.35250428
76	0x3eac4de5	0.3365318
77	0x3f959ca2	1.1688426
78	0x3f05278d	0.52013475
79	0x3e928bb7	0.2862222
80	0x3f4efa42	0.80850613
81	0x3f077327	0.52910084
82	0x3e27e20c	0.16394824
83	0x3f3f992b	0.7484309
84	0x3f67450d	0.9033974
85	0x3f86fd21	1.0545999
86	0x3e8d5000	0.27600098
87	0x3eb81f1b	0.35961232
88	0x3f55bd44	0.8349192
89	0x3f2dcd8b	0.6789176
90	0x3e24d1b5	0.16095622
91	0x3faafd84	1.3358617
92	0x3e8728a4	0.26398194
93	0x3e86b95e	0.263133
94	0x3f30e122	0.69093525
95	0x3efab51a	0.48966295
96	0x3fa3ac34	1.2786927
97	0x3e4962d7	0.1966661
98	0x3e36a56f	0.17836545
99	0x3ef22402	0.47293097
100	0x3e07577e	0.1321697
101	0x3f24b120	0.6433277
102	0x3ed04f1b	0.40685353
103	0x3efdc384	0.4956323
104	0x3ed61547	0.41813108
105	0x3f00789f	0.50184053
106	0x3eb62a66	0.35579222
107	0x3ee28216	0.44239873
108	0x3f5cd43d	0.8626135
109	0x3e277883	0.16354565
110	0x3e81f030	0.2537856
111	0x3f22fb7d	0.6366499
112	0x3ef1752c	0.47159708
113	0x3ef62311	0.4807363
114	0x3ea9ea80	0.33186722
115	0x3e9bd46b	0.304355
116	0x3ec815fd	0.39079276
117	0x3e18e84b	0.14932363
118	0x3efc6bb3	0.49300918
119	0x3ead4f52	0.3384958
120	0x3ed79bd7	0.42111084
121	0x3ed00536	0.40628976
122	0x3e2f78e0	0.17135954
123	0x3f515440	0.8176918
124	0x3ef5e85a	0.48028833
125	0x3efc4016	0.49267644
126	0x3e531c22	0.206162
127	0x3f1ff546	0.6248363

model.4.weight f4 [64, 128]
0	0xbdbb0c24	-0.09133175
1	0xbdf8a9fb	-0.12141796
2	0xbd874124	-0.066042215
3	0x3dc1ac0b	0.09456643
4	0xbbc669b1	-0.00605508
5	0x3d826091	0.06366075
6	0xbd64bb57	-0.055842724
7	0x3ded9646	0.11600928
8	0xbc7cfabe	-0.015440641
9	0x3ca709c4	0.020390399
10	0xbdbddd01	-0.09270669
11	0x3d823087	0.06356912
12	0x3d2c8be8	0.042125612
13	0xbd89a3fc	-0.06720731
14	0x3d8a5ac7	0.06755596
15	0x3ba5fd65	0.0050656074
16	0x3da18b2a	0.078878716
17	0xbda8f215	-0.082492985
18	0x3cbf56fa	0.023356903
19	0xbc9984a0	-0.018739998
20	0x3d1f767e	0.038931362
21	0xbd268563	-0.04065455
22	0x3cd39dfe	0.025832172
23	0xbd6f1af7	-0.058375325
24	0x3d70ce16	0.05879029
25	0xbd6a812b	-0.05725209
26	0xbd47ca09	-0.04877666
27	0xbdd3b014	-0.103363186
28	0x3ca9bb03	0.020719057
29	0x3be030e3	0.0068417653
30	0x3ce3eeb1	0.027823778
31	0x3d7e366a	0.062063612
32	0x3d9850a4	0.07437256
33	0xbcfc7a5c	-0.030820064
34	0x3d1418af	0.036156353
35	0x3cb8b81d	0.02254873
36	0xbcc6ef30	-0.024283975
37	0xbd698572	-0.05701203
38	0x3b8106d5	0.003937582
39	0x3da471ca	0.08029516
40	0xba064591	-0.00051220605
41	0x3d992cfa	0.07479282
42	0x3ca976aa	0.020686466
43	0xbd805c84	-0.06267646
44	0x3ca0645d	0.019579107
45	0xbdb2f788	-0.08738619
46	0xbca318ac	-0.019909225
47	0xbce10c4f	-0.02747169
48	0xbdbebafe	-0.0931301
49	0x3cdfcf36	0.027320486
50	0x3d6b575d	0.057456363
51	0xbdca1406	-0.098671004
52	0x3d0a32e7	0.03373995
53	0xbda4f0af	-0.08053719
54	0xbd6ee998	-0.05832824
55	0x3cca8198	0.024719998
56	0xbbf9db2e	-0.007625005
57	0xbde97ed7	-0.11401146
58	0x3d39a05e	0.045318954
59	0x3c71deb7	0.014762572
60	0xbce31dbf	-0.027724145
61	0x3d90b996	0.07066648
62	0xbcddf3c1	-0.02709377
63	0x3c8432ca	0.0161375
64	0xbce528ad	-0.027973497
65	0x3cd073c1	0.02544582
66	0x3d8583ae	0.065192565
67	0xbd25846f	-0.0404095
68	0x3d6007d2	0.054694958
69	0xbdb7e396	-0.089789554
70	0xbd2184fd	-0.039433468
71	0xbd0cd5bf	-0.03438353
72	0xbd465578	-0.048421353
73	0x3cbdf2b0	0.023187011
74	0xbd6d9615	-0.058004458
75	0x3c7bce9a	0.015369082
76	0x3c21949f	0.009862094
77	0x3d1adf6e	0.037810735
78	0xbdc96a50	-0.098347306
79	0xbcd6bac4	-0.026212104
80	0x3c96e7fd	0.018421168
81	0x3dda896d	0.10670743
82	0xbcac1cae	-0.02100977
83	0xbd95aaf7	-0.073079996
84	0xbd131c49	-0.035915647
85	0xbd96f212	-0.0737039
86	0xbd3d0530	-0.046147525
87	0xbc903da9	-0.017607527
88	0x3d2b5fe6	0.041839503
89	0x3d822bed	0.063560344
90	0xbd77a44b	-0.060459416
91	0x3d8a18f2	0.06743039
92	0x3d32f328	0.043688923
93	0xbd342b13	-0.04398639
94	0x3d86382e	0.06553684
95	0xbd887393	-0.06662669
96	0xbd5d29f0	-0.053995073
97	0xbd4bb947	-0.04973724
98	0xbdc52a53	-0.09627213
99	0xbcfb959a	-0.030710984
100	0x3d4fff52	0.0507806
101	0x3d021496	0.031757914
102	0xbd8bdda5	-0.06829385
103	0xbe017d0f	-0.12645362
104	0xbd08d27c	-0.03340386
105	0x3cef60d1	0.02922097
106	0x3d57eb8a	0.052714862
107	0x3dc0e24e	0.09418164
108	0xbd06077a	-0.032721974
109	0x3d134d9f	0.035962697
110	0xbd170bfa	-0.036876656
111	0xbbdf9639	-0.006823328
112	0x3cbf5da5	0.023360083
113	0x3a71144d	0.00091964455
114	0xbd6a22f3	-0.057162236
115	0xbdbd1ddc	-0.09234211
116	0xbd42fea3	-0.04760612
117	0xbd10a61a	-0.035314657
118	0xbc17aec0	-0.009257972
119	0x3c0162ea	0.007897118
120	0xbb9c9678	-0.0047786795
121	0x3cb53170	0.0221183
122	0xbda0e383	-0.078558944
123	0x3d824e31	0.0636257
124	0xbd4b79d3	-0.049676728
125	0xbd482ca4	-0.048870698
126	0xbd38ec37	-0.045147147
127	0xbd5a928d	-0.053362418
128	0xbcf1357f	-0.029444454
129	0x3d847920	0.06468415
130	0x3d7ea0a6	0.062164925
131	0xbccb54b7	-0.024820669
132	0x3ae1ae4e	0.0017218085
133	0xbcdd2437	-0.026994808
134	0x3d810fbd	0.0630183
135	0x3d6d3b7f	0.057918068
136	0x3d5aa520	0.05338013
137	0xbd2518e6	-0.040306948
138	0xbd9be51e	-0.0761206
139	0x3bf002a3	0.007324533
140	0xbd88d12b	-0.066805206
141	0xbd02a198	-0.03189239
142	0x3b89860e	0.004196889
143	0xbda32dc2	-0.07967712
144	0x3c4cbe29	0.01249651
145	0x3b3cc388	0.002880307
146	0xbc808a8f	-0.01569107
147	0xbcb1b7e2	-0.021694127
148	0xbd458db6	-0.04823085
149	0xbd961812	-0.0732881
150	0xbd59a23f	-0.053133246
151	0x3d62486a	0.05524484
152	0x3c845691	0.01615456
153	0x3db977b2	0.09056033
154	0xbb4308c8	-0.0029759873
155	0xbd0f91b2	-0.035051055
156	0x3d907530	0.07053602
157	0xbda806b4	-0.082044035
158	0xbd3ae50b	-0.04562859
159	0x3d81ee85	0.06344322
160	0xbc1fb072	-0.009746658
161	0x3da53cb5	0.080682196
162	0xbcb20d20	-0.021734774
163	0x3dcd8bfe	0.10036467
164	0x3c65e808	0.014032371
165	0xbaed49a4	-0.0018103612
166	0xbd99b16f	-0.07504546
167	0xbd0212db	-0.031756263
168	0xbbe0dcd0	-0.0068622604
169	0x3d7ff5fb	0.062490445
170	0x3d079f39	0.03311083
171	0xbc939ed1	-0.018020066
172	0xbbc3b30e	-0.0059722727
173	0x3d84048f	0.06446182
174	0x3da13414	0.07871261
175	0x3c9d9098	0.019233987
176	0xbda2c29a	-0.079472736
177	0xbc671f36	-0.014106562
178	0x3da11f52	0.07867302
179	0x3dac1809	0.08403022
180	0xbd2a8fee	-0.04164117
181	0x3d1219b4	0.035669044
182	0xbbbf43f2	-0.005836957
183	0x3d3a643d	0.04550575
184	0xbc9959a2	-0.018719498
185	0xbd9c9968	-0.076464474
186	0xbdc28f1b	-0.094999515
187	0x3c428f6d	0.011875016
188	0x3d048cca	0.03236083
189	0xbd1a3923	-0.037652146
190	0x3d5973fc	0.053089127
191	0x3d7a277f	0.061072823
192	0x3d7c7c20	0.061641812
193	0x3d72459b	0.059148412
194	0xbd907fd3	-0.070556305
195	0xbc924d5e	-0.017859157
196	0x3dac21af	0.08404862
197	0x3d48c80d	0.04901891
198	0xbd9560e5	-0.07293872
199	0xbd5a7f07	-0.0533438
200	0x3d8135ac	0.06309065
201	0xbd8adce0	-0.0678041
202	0x3d00cd61	0.031445865
203	0xbcf751ae	-0.030190315
204	0x3c3e30dd	0.01160833
205	0x3d245b9f	0.04012644
206	0xbb1e517c	-0.0024157455
207	0xbd1a6d91	-0.037702147
208	0x3d2e88a7	0.04261079
209	0xbd896f49	-0.06710679
210	0xbd282f30	-0.041060627
211	0xb9438e3b	-0.00018649634
212	0xbc91af79	-0.017783867
213	0x3d9138cc	0.07090911
214	0xbd689e98	-0.05679187
215	0x3daab2db	0.08334895
216	0x3c0e9338	0.008702092
217	0x3cdc3f69	0.026885705
218	0x3d6ea48a	0.058262385
219	0xbd856e2f	-0.065151565
220	0xbdb24cf6	-0.087060854
221	0x3c7579a6	0.0149826165
222	0x3d6965a9	0.056981716
223	0x3d9065a3	0.07050636
224	0xbb2d21fd	-0.0026417964
225	0x3dcd1092	0.10012926
226	0x3ca14bbe	0.019689437
227	0x3cd7976a	0.026317317
228	0xbd5ae0b7	-0.05343696
229	0x3cd38652	0.025820885
230	0xbc63bacf	-0.013899519
231	0xbdad19aa	-0.08452161
232	0xbd94014e	-0.07226811
233	0xbd46a817	-0.048500147
234	0x3c517913	0.012785214
235	0xbce9e860	-0.028553188
236	0x3dacab8d	0.08431158
237	0x3d092417	0.033481684
238	0xbd9fd1eb	-0.078037106
239	0xbbb7ea4c	-0.005612647
240	0x3dbbff45	0.09179548
241	0xbbb11402	-0.0054039964
242	0x3cf0a514	0.02937559
243	0xbc3025be	-0.010751186
244	0xbbba7551	-0.0056902547
245	0xbd5973ba	-0.05308888
246	0xbc2b3f27	-0.010452068
247	0xbc23888e	-0.009981288
248	0x3db3100e	0.087432966
249	0xbdafd1d2	-0.08584942
250	0x3ae5eec3	0.001754247
251	0xbd355afd	-0.044276226
252	0x3b800606	0.003906968
253	0xbc8a047d	-0.016847843
254	0xbca8f1c9	-0.020623105
255	0x3d00df42	0.031462915

model.4.bias f4 [64]
0	0xbb9219e7	-0.004458654
1	0x3da3829a	0.07983895
2	0x3d5cc77d	0.053901184
3	0x3bdab94f	0.0066749225
4	0x3db243ee	0.08704363
5	0x3bf908be	0.007599919
6	0x3d0f371d	0.03496467
7	0xbcc91e15	-0.024550477
8	0xbd9b862e	-0.07593952
9	0xbd655f28	-0.05599895
10	0xbd8fcda5	-0.070216455
11	0x3d7703ac	0.060306236
12	0x3d20734f	0.039172467
13	0x3cbf79c2	0.023373488
14	0x3da4e682	0.080517784
15	0xbd7fbe3c	-0.06243728
16	0x3cbb3997	0.02285461
17	0x3b77cec8	0.003781246
18	0xbda37040	-0.07980394
19	0xbda95ee8	-0.08270055
20	0x3dad6818	0.0846712
21	0x3d9d9f6a	0.076964214
22	0x3c83ed0b	0.016104242
23	0xbd68380e	-0.056694083
24	0x3bccd1b5	0.006250585
25	0x3d844c5e	0.064598784
26	0xbc9c1f0f	-0.019057779
27	0x3b80408d	0.003913945
28	0xbd30cefd	-0.04316615
29	0x3d8392f8	0.064245164
30	0xbd69aed5	-0.0570515
31	0xbd494ab5	-0.04914351
32	0xbc98483d	-0.018589133
33	0xba530b48	-0.0008050692
34	0x3cbc21b8	0.022965297
35	0x3d950f35	0.07278291
36	0x3d6c2b05	0.057658214
37	0x3c6c3aeb	0.014418344
38	0x3cc602e4	0.0241713
39	0x3d9e222f	0.07721364
40	0xbcd8bcc9	-0.026457207
41	0xbd26947e	-0.040668957
42	0x3d853ca0	0.06505704
43	0x3da0d37e	0.07852839
44	0xbb9002a2	-0.004394845
45	0xbb9dfc2c	-0.004821321
46	0x3d8aac5f	0.067711584
47	0xbc8b019c	-0.01696854
48	0x3db0dbe7	0.08635693
49	0xbd80a934	-0.06282273
50	0x3cb051bf	0.021523355
51	0x3d856a6d	0.0651444
52	0xbdaddc15	-0.08489243
53	0xbcaf63fd	-0.021409983
54	0x3d97ce0a	0.07412346
55	0x3d8799c1	0.06621123
56	0xbd7b5fc7	-0.061370637
57	0x3d934af8	0.071920335
58	0x3d988f58	0.07449216
59	0x3d104927	0.035226014
60	0xbcab820d	-0.020936036
61	0xbd4d2ccf	-0.05009156
62	0xbca6dc1d	-0.02036863
63	0x3cf68548	0.03009285

model.5.weight f4 [64]
0	0x3f826d36	1.0189579
1	0x3f798130	0.9746275
2	0x3f7c9c6c	0.9867618
3	0x3f80256e	1.0011423
4	0x3f811611	1.0084859
5	0x3f7839c6	0.96963155
6	0x3f78ccf2	0.9718772
7	0x3f7f627b	0.99759644
8	0x3f8160ae	1.0107629
9	0x3f857fbe	1.0429609
10	0x3f81c27c	1.0137477
11	0x3f7d1c6e	0.98871505
12	0x3f833fdf	1.0253867
13	0x3f80a408	1.0050058
14	0x3f7c3bbf	0.98528665
15	0x3f7ee6a8	0.99570704
16	0x3f80ede0	1.0072594
17	0x3f7e39e7	0.993071
18	0x3f78bb6f	0.97161
19	0x3f85528c	1.0415816
20	0x3f80a781	1.0051118
21	0x3f754d6f	0.9582128
22	0x3f7e01a0	0.9922123
23	0x3f72d84b	0.94861287
24	0x3f85a281	1.0440217
25	0x3f7e1b11	0.9926005
26	0x3f8150e0	1.0102806
27	0x3f81aaae	1.0130212
28	0x3f757187	0.95876354
29	0x3f7baac0	0.9830742
30	0x3f78e85e	0.97229564
31	0x3f7452c5	0.95438796
32	0x3f7d980c	0.9906013
33	0x3f801275	1.0005633
34	0x3f839aa9	1.0281574
35	0x3f81cf3f	1.0141371
36	0x3f791ef9	0.97312886
37	0x3f7a4cda	0.97773516
38	0x3f79e13b	0.976093
39	0x3f73e47a	0.952705
40	0x3f779021	0.967043
41	0x3f7d5a94	0.98966336
42	0x3f7a91e8	0.97878885
43	0x3f7ba322	0.98295796
44	0x3f818d56	1.0121257
45	0x3f7fdd84	0.9994738
46	0x3f800464	1.000134
47	0x3f80dc29	1.0067188
48	0x3f76273e	0.9615363
49	0x3f82721a	1.0191071
50	0x3f835abf	1.0262069
51	0x3f8089a6	1.0042007
52	0x3f80a1d7	1.004939
53	0x3f804b5a	1.0022995
54	0x3f80a538	1.0050421
55	0x3f7d4ea7	0.9894814
56	0x3f83351a	1.025058
57	0x3f7aac4d	0.9791916
58	0x3f85700d	1.042482
59	0x3f7918ef	0.9730367
60	0x3f7db9fc	0.99111915
61	0x3f7f93fb	0.99835175
62	0x3f84856b	1.0353216
63	0x3f7c34f0	0.98518276

model.5.bias f4 [64]
0	0x3d118a02	0.035532005
1	0xbcf8fa51	-0.030392798
2	0xbcc9ca53	-0.024632609
3	0x3c653750	0.013990238
4	0x3cd94a7f	0.02652478
5	0xbc861b9f	-0.016370593
6	0xbc5983d6	-0.013276061
7	0x3c73c8f3	0.014879453
8	0xbc849d97	-0.016188426
9	0x3d0390cb	0.032120507
10	0x3d284925	0.04108538
11	0xbc0c3943	-0.008558574
12	0x3c696299	0.014244699
13	0xbc68aac1	-0.014200867
14	0xbb83bc50	-0.0040202513
15	0x3c07c63c	0.008287009
16	0x3ca27424	0.01983077
17	0x3c5a73aa	0.0133332405
18	0xbc6023b1	-0.0136803845
19	0x3d39b63a	0.0453398
20	0xbb9ff957	-0.0048820185
21	0xbcbc9f2d	-0.02302512
22	0x3b63fcfc	0.0034788242
23	0xbd42bb51	-0.04754192
24	0x3cb8be57	0.022551699
25	0x3cd28466	0.025697898
26	0x3cea7ff2	0.028625462
27	0x3d24282c	0.040077373
28	0xbd02786e	-0.031853132
29	0xb8ef1eb2	-0.000114021255
30	0xbc338f83	-0.010959509
31	0xbcebdf31	-0.02879295
32	0xbc0cc4a2	-0.008591803
33	0x3cc7e4be	0.024401065
34	0x3ce61b49	0.028089182
35	0x3cd750ab	0.026283583
36	0xbc7f5f98	-0.015586756
37	0x3a0a5168	0.00052764127
38	0xbb9fe496	-0.0048795445
39	0xbcbf44c1	-0.023348214
40	0xbcb01372	-0.021493647
41	0x3c642e84	0.013927106
42	0xbbe699a8	-0.00703736
43	0x3c0b4e36	0.008502534
44	0x3c4d4934	0.01252966
45	0x3c2d1e78	0.010566346
46	0x3b88d7a1	0.0041760956
47	0x3b0a2120	0.0021076873
48	0xbd50bd3b	-0.050961714
49	0x3ce2c048	0.027679577
50	0x3d13b8cc	0.036064908
51	0x3c5226f2	0.012826668
52	0x3d04d03a	0.032425143
53	0x3ca64cc7	0.020300282
54	0x3d0b3bc4	0.033992544
55	0x3c0b2988	0.008493789
56	0x3cb88f82	0.022529367
57	0x3bdd0761	0.0067452644
58	0x3d04b19f	0.032395955
59	0xbc852f86	-0.016258013
60	0x3cc3144c	0.02381339
61	0xbc3908ce	-0.011293603
62	0x3d5c9b08	0.053858787
63	0xba6f31f6	-0.0009124571

model.5.running_mean f4 [64]
0	0xbeec2c69	-0.46127632
1	0x3e1487a4	0.14504868
2	0xbeaa6e49	-0.33287266
3	0xbdbed18a	-0.0931731
4	0x3d9f4c4d	0.07778225
5	0x3e788bc2	0.24272063
6	0x3b0d6a12	0.0021578115
7	0xbe61583d	-0.22006316
8	0xbe614e83	-0.22002606
9	0xbe402a02	-0.18766025
10	0x3e448576	0.19191536
11	0x3e3907c9	0.18069376
12	0x3da62206	0.08111958
13	0xbdb1ce54	-0.08681932
14	0x3e9dc0c9	0.30811146
15	0xbeb40087	-0.35156652
16	0x3da634b6	0.081155226
17	0xbecd9099	-0.40149382
18	0xbea44eb7	-0.32091305
19	0xbdd1a334	-0.10236207
20	0x3df30d48	0.118677676
21	0xbf0c3dd5	-0.5478185
22	0xbd41d1ab	-0.047319096
23	0xbe0ffe64	-0.14061886
24	0xbe295edf	-0.16540097
25	0xbead96cf	-0.3390412
26	0xbe5323eb	-0.2061917
27	0xbedc4c95	-0.43027177
28	0x3e1fdfc6	0.15612707
29	0xbce6b1ea	-0.028161008
30	0xbeecb579	-0.46232203
31	0xbe3d8733	-0.18508606
32	0xbd883401	-0.06650544
33	0xbe843491	-0.25821355
34	0x3dfff7ef	0.124984615
35	0xbe2fd4e3	-0.17171054
36	0xbdc5e10c	-0.09662065
37	0xbe371fd4	-0.17883235
38	0xbe365683	-0.17806439
39	0xbdbbe46a	-0.09174426
40	0xbf0ed5b0	-0.5579481
41	0x3e029607	0.12752543
42	0x3dd7e0fa	0.10540958
43	0xbe25a400	-0.16175842
44	0xbea37993	-0.3192869
45	0xbdceff59	-0.101072975
46	0xbebba72a	-0.36650974
47	0x3eb609b3	0.35554275
48	0x3e7d9662	0.24764398
49	0x3e48647e	0.19569585
50	0xbdf23998	-0.118273914
51	0xbd1a87fa	-0.037727334
52	0xbed1dd3e	-0.40989107
53	0xbee2645e	-0.442172
54	0xbd6b2e25	-0.057417054
55	0xbf17cb8d	-0.5929497
56	0xbdb395c2	-0.087687984
57	0x3ba9dd6d	0.0051838667
58	0xbde81bdf	-0.11333441
59	0x3e66ec26	0.22551021
60	0xbf0e419d	-0.5556887
61	0x3e13587f	0.14389227
62	0xbf116ace	-0.56803596
63	0xbec01927	-0.3751919

model.5.running_var f4 [64]
0	0x3f382877	0.71936744
1	0x3e99a2f8	0.30007148
2	0x3eece252	0.4626642
3	0x3ede9b69	0.43477944
4	0x3e62412b	0.22095172
5	0x3f0ba75b	0.5455224
6	0x3eab673a	0.33477193
7	0x3f196c55	0.59930927
8	0x3eff0ba1	0.4981356
9	0x3ec9ea42	0.39436537
10	0x3f32f859	0.699102
11	0x3ece1630	0.40251303
12	0x3f0afb46	0.5428966
13	0x3e7ed4b1	0.24885823
14	0x3e91069c	0.28325355
15	0x3f49bee8	0.78806925
16	0x3ec86914	0.39142668
17	0x3e9c30e1	0.30506042
18	0x3ec6b62d	0.38810864
19	0x3e806392	0.25075966
20	0x3ea81080	0.32825089
21	0x3eafffe5	0.3437492
22	0x3f1206f6	0.5704187
23	0x3ecd7531	0.40128472
24	0x3ef2725a	0.47352868
25	0x3ee572a1	0.44814017
26	0x3f2b2f60	0.66869164
27	0x3edf8365	0.43654934
28	0x3e8ea217	0.2785804
29	0x3ee1a09b	0.44067845
30	0x3f8962f9	1.0733329
31	0x3e81b17e	0.25330728
32	0x3ec7be01	0.3901215
33	0x3e54eafe	0.20792767
34	0x3ef4478a	0.4771083
35	0x3f3298ce	0.6976441
36	0x3eacddaa	0.33762866
37	0x3eb00f2b	0.34386572
38	0x3e41aa8d	0.18912716
39	0x3eaa01b0	0.33204412
40	0x3ec4c431	0.38430932
41	0x3e0dcf13	0.13848524
42	0x3ec027e7	0.37530443
43	0x3ef4a4ee	0.4778208
44	0x3ebbd761	0.3668776
45	0x3f6fa919	0.936174
46	0x3e9794e0	0.2960577
47	0x3f098580	0.5371933
48	0x3ea314ec	0.318519
49	0x3f0e7a0a	0.55654967
50	0x3f2e0a45	0.6798442
51	0x3f28b080	0.6589432
52	0x3f268cbc	0.65058494
53	0x3f06abf6	0.5260614
54	0x3f0b386a	0.54382956
55	0x3ebf3f2e	0.3735289
56	0x3ef84485	0.48489776
57	0x3ed679ed	0.41889897
58	0x3f1366d4	0.5757878
59	0x3e95ab43	0.29232225
60	0x3f4451d8	0.76687384
61	0x3f1bc9fe	0.6085509
62	0x3f2ccfad	0.6750439
63	0x3ecc2456	0.39871472

model.8.weight f4 [32, 64]
0	0x3d8ab9ec	0.06773743
1	0x3c512237	0.012764505
2	0xbd7389a8	-0.05945745
3	0x3d811482	0.0630274
4	0x3d40922a	0.047014393
5	0x3d07d4ae	0.03316181
6	0xbda9b29f	-0.082860224
7	0xbd8e6de5	-0.069545545
8	0xbd80429f	-0.06262707
9	0x3d10ec5f	0.03538167
10	0x3df11e88	0.117734015
11	0xbd86b54d	-0.06577549
12	0xbdef525a	-0.11685629
13	0xbdbc93ea	-0.092079
14	0xbd83f16f	-0.06442534
15	0xbd63e2dc	-0.05563627
16	0x3dd793ab	0.10526212
17	0xbd828016	-0.06372087
18	0x3df3f13a	0.11911245
19	0x3db46d87	0.08809953
20	0xbcdf2f3d	-0.027244205
21	0xbd57ba99	-0.052668188
22	0xbbed1f9a	-0.007236433
23	0xbdd94d30	-0.106104255
24	0xbdc9e72b	-0.09858545
25	0x3d89b7a9	0.067244835
26	0xbe12268b	-0.14272515
27	0x3dc63e88	0.09679896
28	0xbdd56720	-0.1042006
29	0xbc3b79ae	-0.011442585
30	0xbd40248f	-0.046909865
31	0xbc9566bc	-0.018237464
32	0xbdc0a2d4	-0.09406057
33	0xbbc59959	-0.0060302434
34	0xbe01a723	-0.12661414
35	0x3c9df740	0.019282937
36	0x3d73f51c	0.059559926
37	0x3d8626ec	0.065503925
38	0xbd98abe7	-0.07454663
39	0xbdbc1cee	-0.091852054
40	0x3d8e8790	0.0695945
41	0x3dc476a4	0.095929414
42	0x3d39a565	0.04532375
43	0xbdeba41d	-0.115059115
44	0x3d89ef29	0.06735069
45	0x3d4104c1	0.047123674
46	0x3cd01e77	0.025405152
47	0x3d842e44	0.06454137
48	0xbddb071f	-0.106947176
49	0x3d607f18	0.054808706
50	0x3bda90f3	0.0066701113
51	0xbdbee14f	-0.09320318
52	0x3e0ec431	0.13942029
53	0xbdd53b03	-0.10411646
54	0x3da7c006	0.081909224
55	0x3d1f46ed	0.038886
56	0xbce6e52f	-0.028185455
57	0x3ceb83e3	0.028749412
58	0x3d2d34b8	0.042286605
59	0x3d336e9c	0.043806657
60	0x3d1db2fa	0.038500763
61	0x3c846035	0.016159156
62	0x3dfae8bf	0.12251424
63	0xbd3557fc	-0.04427336
64	0xbd47bc0a	-0.048763312
65	0x3c9201aa	0.01782306
66	0x3db76535	0.089548506
67	0xbd4a2b90	-0.04935795
68	0xbcafb253	-0.021447336
69	0x3d1212ca	0.03566245
70	0xbdcd0bd2	-0.1001202
71	0xbdbf06c7	-0.093274646
72	0x3c72505a	0.014789665
73	0x3d287ca7	0.041134503
74	0xbe08a1a6	-0.13342914
75	0x3df8e8a1	0.121537454
76	0x3d2fac85	0.042889137
77	0xbdbbebed	-0.09175859
78	0x3df39db7	0.11895316
79	0x3b391a53	0.002824445
80	0xbc54c0d2	-0.012985425
81	0x3d0180d5	0.031617004
82	0xbdb054de	-0.08609937
83	0xbcc4e3d6	-0.024034422
84	0x3db17112	0.086641446
85	0xbd27fa80	-0.04101038
86	0x3d378839	0.044807646
87	0x3d8521f0	0.06500614
88	0x3e192aef	0.14957784
89	0xbdf3fa43	-0.11912968
90	0x3d4f2923	0.05057634
91	0x3d8ad0cb	0.06778105
92	0xbd2bf049	-0.0419772
93	0x3d9807e9	0.07423384
94	0x3cc4bdec	0.024016343
95	0x3dd9f9af	0.106433265
96	0xbda4a183	-0.080386184
97	0x3cef3618	0.029200599
98	0xbda01940	-0.07817316
99	0x3d1b1775	0.037864167
100	0x3d8ad7e1	0.06779457
101	0xbdef96ec	-0.11698708
102	0x3dbffcf8	0.09374422
103	0x3d651123	0.055924546
104	0x3becc833	0.007226014
105	0x3dc8b1ee	0.097995624
106	0x3bb2e370	0.0054592416
107	0xbd97874b	-0.07398852
108	0xbda2b941	-0.07945491
109	0x3d754bc4	0.05988671
110	0xbdb59861	-0.088669546
111	0xbd51be49	-0.05120686
112	0x3dea3a1a	0.11436863
113	0x3da4d493	0.08048358
114	0x3df58fdb	0.11990329
115	0x3d821497	0.063515835
116	0xbcd36833	-0.025806522
117	0x3cedebd9	0.029043125
118	0xbd327aca	-0.043574132
119	0x3dab94bf	0.083779804
120	0xbd893199	-0.06698913
121	0xbd5c5d9a	-0.053800203
122	0xbd494f1f	-0.04914772
123	0xbd980a84	-0.07423881
124	0xbc33dc1b	-0.01097777
125	0xbc4b9512	-0.012425678
126	0xbd0d676a	-0.03452245
127	0x3d8e2daa	0.069423035
128	0x3dd53653	0.10410752
129	0xbd176c0b	-0.036968272
130	0x3dfef995	0.12449948
131	0x3d00ae46	0.0314162
132	0xbccc761d	-0.024958665
133	0x3da42409	0.08014686
134	0xbc4fb196	-0.012676617
135	0x3dc02c4b	0.09383448
136	0xbce93647	-0.028468264
137	0x3d43a236	0.04776212
138	0x3de92a26	0.11384992
139	0x3dd7ffce	0.10546838
140	0x3c5819f1	0.013189779
141	0x3c9ad4f9	0.018900381
142	0xbdd5a73e	-0.104322895
143	0x3c3aa2ed	0.011391384
144	0x3da5c52a	0.08094247
145	0x3dfbda7b	0.12297531
146	0x3d5ab584	0.053395763
147	0xbd9d3d85	-0.076777495
148	0x3d5176c2	0.051138647
149	0xbd56fbf8	-0.05248639
150	0x3c86235a	0.016374279
151	0xbd4753da	-0.04866395
152	0xbd5e09e6	-0.05420866
153	0x3c846c76	0.016165
154	0x3cd343e3	0.025789207
155	0xbda5174f	-0.080610864
156	0xbdb54ce6	-0.08852558
157	0xbc272a5f	-0.010202973
158	0x3de5a238	0.112125814
159	0x3d5cae81	0.053877357
160	0x3d4d687d	0.050148476
161	0xbe0bc5eb	-0.13649718
162	0xbd655e3a	-0.055998065
163	0xbd8958ac	-0.06706366
164	0x3d75f366	0.060046576
165	0x3d85bfdc	0.06530735
166	0x3e01b731	0.12667538
167	0x3d66de09	0.056364093
168	0x3dbada68	0.09123689
169	0xbc5b7cf4	-0.01339649
170	0x3b2d6ef3	0.0026463836
171	0xbdf4f2cf	-0.119603746
172	0xbdbabcb9	-0.09118027
173	0xbe15850a	-0.14601532
174	0x3d85cb26	0.06532888
175	0x3d87dbce	0.06633721
176	0xbd91f383	-0.07126524
177	0x3de5d71d	0.1122267
178	0xbe03b6a4	-0.1286264
179	0xbc9b233f	-0.018937705
180	0xbdef76b9	-0.116925664
181	0x3e05d421	0.13069202
182	0xbdabfd93	-0.08397975
183	0xbd1a77ab	-0.03771178
184	0x3c16dc1b	0.009207751
185	0xbcb41ff3	-0.02198789
186	0x3dcafb46	0.09911208
187	0x3dd90ccd	0.10598145
188	0x3db37412	0.08762373
189	0x3b9c6843	0.004773171
190	0x3d2bff42	0.04199148
191	0xbded5a86	-0.115895316
192	0xbd12cdcc	-0.035840794
193	0xbd67ee08	-0.05662349
194	0x3d90f71a	0.07078381
195	0x3bc72122	0.006076948
196	0xbdda39ef	-0.10655581
197	0x3ddc1eb5	0.107480444
198	0xbcd28078	-0.025696024
199	0x3dc1df2e	0.09466396
200	0x3dc8ad5d	0.097986914
201	0xbc4ba30d	-0.012429011
202	0xbdd7ce86	-0.10537438
203	0x3c799664	0.01523361
204	0xbce3a42b	-0.027788242
205	0xbd4c3cef	-0.0498628
206	0xbda52fba	-0.08065744
207	0xbd88a1e6	-0.06671505
208	0x3d3610b1	0.044449512
209	0x3d5f905e	0.05458104
210	0x3d616bdd	0.055034507
211	0x3d8797ef	0.06620776
212	0xbd19cf33	-0.037551116
213	0xbd1c5280	-0.038164616
214	0x3e10de42	0.14147285
215	0xbda1da83	-0.07903006
216	0xbe039cc3	-0.12852769
217	0x3e00272d	0.12514944
218	0x3d0a2908	0.033730537
219	0xbce432ee	-0.027856316
220	0x3cefc740	0.029269814
221	0xbd81e321	-0.063421495
222	0xbc68e733	-0.014215278
223	0x3d2f90c0	0.042862654
224	0xbd5f6494	-0.05453928
225	0x3b454bf2	0.0030105081
226	0xbd7162bd	-0.058932055
227	0xbe08b227	-0.1334921
228	0x3d41919c	0.047258005
229	0xbdde6354	-0.10858789
230	0xbe0954ce	-0.13411257
231	0x3ceb3217	0.028710408
232	0x3d712a78	0.058878392
233	0x3d3abbfd	0.045589436
234	0xbda6e476	-0.08149044
235	0x3dac0d35	0.084009565
236	0xbc40bf6f	-0.011764391
237	0xbd2d0f75	-0.04225107
238	0x3dcdb0e9	0.100435086
239	0x3d96b7a2	0.07359244
240	0xbd44c6ff	-0.04804134
241	0x3dba7579	0.091044374
242	0xbd36e6a6	-0.044653557
243	0xbd9d7902	-0.07689096
244	0x3dca7ace	0.098867044
245	0x3c9f932a	0.019479353
246	0xbce7d904	-0.028301723
247	0x3df9069a	0.12159462
248	0x3dcd934e	0.10037862
249	0x3d00e855	0.03147157
250	0x3dc0d4db	0.09415599
251	0xbd29b926	-0.041436337
252	0xbd11e2b8	-0.035616606
253	0x3de71378	0.1128301
254	0x3de6f4ed	0.11277185
255	0x3daa3736	0.08311312

model.8.bias f4 [32]
0	0xbdbe2a2d	-0.09285388
1	0xbdee2fe4	-0.11630228
2	0xbdf707ba	-0.120620206
3	0x3df75486	0.120766684
4	0x3d8d6101	0.06903268
5	0x3d59f07e	0.053207867
6	0x3da1a86b	0.07893451
7	0x3d141205	0.036149997
8	0xbd254865	-0.040352244
9	0xbc84d775	-0.01621602
10	0xbd56e2d5	-0.052462418
11	0x3d63e308	0.055636436
12	0x3d11fcaa	0.03564135
13	0xbdd7d65a	-0.10538931
14	0x3c9abebf	0.018889783
15	0xbdc2305a	-0.094818786
16	0x3dcffcc2	0.101556316
17	0x3c698463	0.014252755
18	0xba856ce2	-0.0010179544
19	0xbd926a13	-0.07149138
20	0x3ccd4afd	0.025060171
21	0x3ca3cbf7	0.019994719
22	0x3d04db6a	0.032435812
23	0xbdc26f72	-0.09493913
24	0xbd5d29f3	-0.053995084
25	0xbda81cb2	-0.08208598
26	0xbd9bc17b	-0.07605263
27	0xbd8abcda	-0.06774302
28	0xbdd42742	-0.1035905
29	0x3dff3be3	0.12462594
30	0xbdf1a6f0	-0.11799419
31	0xbcfc52b2	-0.030801151

model.9.weight f4 [32]
0	0x3f7b20ba	0.9809681
1	0x3f7abcfd	0.97944623
2	0x3f81832e	1.0118158
3	0x3f74ebc0	0.95672226
4	0x3f7b1314	0.98075986
5	0x3f86dfd8	1.0537062
6	0x3f85bcf8	1.0448294
7	0x3f745084	0.9543536
8	0x3f841027	1.0317429
9	0x3f779d4c	0.9672439
10	0x3f838176	1.0273883
11	0x3f823b4e	1.0174348
12	0x3f811c45	1.0086752
13	0x3f748233	0.9551117
14	0x3f6e9f07	0.93211406
15	0x3f842d94	1.0326409
16	0x3f7f917a	0.99831355
17	0x3f803666	1.0016601
18	0x3f7bb234	0.9831879
19	0x3f779d8d	0.9672478
20	0x3f6eb893	0.9325039
21	0x3f82f840	1.023201
22	0x3f819ca7	1.0125932
23	0x3f84497e	1.0334928
24	0x3f8079fb	1.0037225
25	0x3f76c108	0.9638829
26	0x3f762b71	0.96160036
27	0x3f75d22e	0.96023834
28	0x3f7dafc0	0.990963
29	0x3f82bf5c	1.0214648
30	0x3f7af7b3	0.9803421
31	0x3f79390e	0.97352684

model.9.bias f4 [32]
0	0x3c602ea8	0.013682999
1	0xbc2a1222	-0.0103803
2	0x3d14bb50	0.036311448
3	0xbc00b431	-0.007855461
4	0x3bf16f1f	0.007367983
5	0x3d5634ab	0.05229632
6	0x3d6c3899	0.057671163
7	0x3becaebc	0.0072229784
8	0x3c8296a6	0.015940975
9	0x3aa59129	0.0012631762
10	0x3c9baa6e	0.019002166
11	0x3ced6fad	0.028983915
12	0x3c265093	0.010151046
13	0xbd2ee28c	-0.04269652
14	0xbd1f1fb3	-0.03884859
15	0x3d27f1b1	0.04100198
16	0x3c2b92b6	0.01047199
17	0x3cc3d9b4	0.02390752
18	0xbbb95a1a	-0.005656493
19	0xbb47e210	-0.0030499734
20	0xbd25e339	-0.0404999
21	0x3d4a18b0	0.04933995
22	0x3d1abd69	0.03777829
23	0x3d791052	0.06080658
24	0x3cfe3aaf	0.031033842
25	0xbc902660	-0.017596424
26	0xbd175cb2	-0.036953636
27	0xbd5ca9ca	-0.05387286
28	0x3cbc3283	0.022973305
29	0x3cb571e5	0.022149036
30	0x3d3d7783	0.046256553
31	0x3c88e28d	0.01670959

model.9.running_mean f4 [32]
0	0xbe080437	-0.13282858
1	0x3d33c273	0.043886613
2	0x3dca2d33	0.09871902
3	0x3e8189e6	0.2530052
4	0xbdd64bd3	-0.10463681
5	0x3bbe1efd	0.005802034
6	0x3e924722	0.28569895
7	0xbcba9cd6	-0.022779863
8	0xbeb0e52f	-0.34549853
9	0x3e8cc29e	0.2749223
10	0xbeacbcce	-0.33737797
11	0x3e0a508c	0.13507289
12	0xbec4f362	-0.38466936
13	0xbcfcea83	-0.030873543
14	0xbc6b2b1f	-0.014353543
15	0xbe3f0f80	-0.18658257
16	0x3d9ce112	0.07660116
17	0x3cfd2ff0	0.030906647
18	0x3ee744c0	0.4516964
19	0xbde89ff6	-0.11358635
20	0xbdb006b6	-0.0859503
21	0xbd2bf2d0	-0.04197961
22	0xbdac4ba6	-0.08412866
23	0xbf251e17	-0.6449904
24	0xbd28b3f0	-0.041187227
25	0xbe830b1a	-0.25594407
26	0xbdf20888	-0.118180335
27	0xbb77b1ef	-0.0037795266
28	0xbe957099	-0.29187468
29	0x3e0ebd94	0.13939506
30	0xbea32ef9	-0.31871775
31	0xbe09bf8a	-0.13451973

model.9.running_var f4 [32]
0	0x3ebada98	0.364949
1	0x3e243282	0.16034892
2	0x3f4e5da4	0.80611634
3	0x3e9c5b17	0.30538246
4	0x3f01487e	0.5050124
5	0x3f4caec2	0.7995416
6	0x3f5c8701	0.861435
7	0x3f3e957d	0.7444685
8	0x3f968c39	1.1761543
9	0x3f68900b	0.9084479
10	0x3f5b7527	0.85725635
11	0x3f7077b6	0.93932664
12	0x3f0eaa28	0.5572839
13	0x3e7bdba9	0.24595512
14	0x3e3cdcdd	0.18443628
15	0x3f1b1e1a	0.60592806
16	0x3e535b1a	0.20640221
17	0x3f12872d	0.5723751
18	0x3f4bdecc	0.79636836
19	0x3e61f14e	0.22064707
20	0x3e5c612c	0.21521443
21	0x3f92f49d	1.14809
22	0x3f356154	0.70851636
23	0x3ef3033e	0.4746341
24	0x3e9e29f6	0.3089139
25	0x3f06d284	0.5266497
26	0x3e1004aa	0.14064279
27	0x3f009356	0.50224817
28	0x3ef6da11	0.48213246
29	0x3f0522a6	0.52005994
30	0x3f3696a2	0.713236
31	0x3f2ad380	0.66728973
